data/dqn_model.pt/policy_net.pth (torch, 334630 bytes, 6 tensors)

fc1.weight f4 [256, 21]
0	0xbdb46c66	-0.08809738
1	0xbcb92a9e	-0.02260333
2	0xbd607cab	-0.054806393
3	0xbdbb28e5	-0.091386594
4	0xbd141ebc	-0.036162123
5	0xbe83dcd4	-0.25754416
6	0xbdece7e1	-0.11567665
7	0x3d9cd6ed	0.07658181
8	0xbe417bdc	-0.18894905
9	0x3dba57e5	0.09098796
10	0xbe8b8516	-0.27249974
11	0xbdc7577a	-0.09733482
12	0x3d47e4e7	0.048802283
13	0x3cf0beb0	0.029387802
14	0xbe6dd2b0	-0.23224902
15	0xbe4ab57e	-0.19795796
16	0x3f453f93	0.7705013
17	0x3e9efc4f	0.3105187
18	0xbd1091b0	-0.03529519
19	0xbed6da9a	-0.41963655
20	0xbe3e5869	-0.18588413
21	0xbdb9d308	-0.09073454
22	0xbe285e17	-0.16442142
23	0x3d97ad28	0.07406074
24	0xbf17cf5e	-0.5930079
25	0xbf50084d	-0.81262666
26	0xbfa81e34	-1.3134217
27	0xc01304b9	-2.2971632
28	0xbe8dd059	-0.2769802
29	0x3e6c8022	0.23095754
30	0xbf3d767a	-0.74008906
31	0x3f9aad89	1.2084209
32	0xc0065122	-2.098702
33	0x3f202996	0.62563455
34	0xc046a64a	-3.1038995
35	0xbeca29d0	-0.39485025
36	0x403669f3	2.8502166
37	0x3fc27f20	1.5195045
38	0x3f4e9f6e	0.8071202
39	0xbff4d6e0	-1.9128075
40	0xbf84803a	-1.0351632
41	0x3fa74573	1.3068069
42	0xbe20d689	-0.15706839
43	0xbd940374	-0.07227221
44	0xbe2be283	-0.16785626
45	0xbbba9fea	-0.005695333
46	0xbe74c5c1	-0.23903562
47	0xbdbf9d5b	-0.09356185
48	0xbef90ea2	-0.48643976
49	0xbf36863e	-0.7129859
50	0x3f01527f	0.50516504
51	0x3e8724e9	0.26395348
52	0xbf013f07	-0.504868
53	0x3f1f2c21	0.6217671
54	0x3f52d5ba	0.8235737
55	0xbf1f54ab	-0.6223857
56	0x3f067093	0.52515525
57	0xbe014fa9	-0.12628044
58	0xbf788c37	-0.9708895
59	0x3f007ab6	0.5018724
60	0xbdc4f81d	-0.09617636
61	0xbef4c123	-0.47803602
62	0x3e21b18f	0.1579039
63	0xbe9ff6c1	-0.31242946
64	0x3c990bf2	0.018682454
65	0xbeb0b20c	-0.3451084
66	0x3d75e6f8	0.060034722
67	0xbe6634e6	-0.22481117
68	0xbdbe57d7	-0.09294098
69	0xbf95ad61	-1.1693536
70	0xbf61d2ab	-0.8821208
71	0x3f71ad88	0.9440541
72	0xbf3935bd	-0.72347623
73	0xbf9d8368	-1.2305727
74	0xbfaadcf0	-1.3348675
75	0xbf40cdd6	-0.7531408
76	0xbf1478d5	-0.57996875
77	0xbf0e628d	-0.55619127
78	0x3f68e994	0.9098141
79	0xbf8b6cf7	-1.0892628
80	0xbdc878bf	-0.097886555
81	0x3e96a9af	0.29426333
82	0x3fbadf2b	1.4599355
83	0xbfd58058	-1.6679792
84	0xbf77de03	-0.9682314
85	0xbfb55365	-1.4166075
86	0xbf8512ae	-1.0396326
87	0xbda375fd	-0.07981489
88	0xbe6ac46b	-0.2292649
89	0x3e1b2f96	0.15154871
90	0xbf21c7a6	-0.63195264
91	0x40417c26	3.0232024
92	0xc034f335	-2.8273442
93	0xc14aca60	-12.674408
94	0xc116103f	-9.378966
95	0x3fadc22f	1.3574885
96	0xc01194cd	-2.274707
97	0xbf8fe94a	-1.1243069
98	0xc02cc62e	-2.699596
99	0xbf5566cb	-0.83359975
100	0x3f4c6558	0.7984214
101	0x3e09b2ec	0.1344716
102	0xc084fedb	-4.1561103
103	0xbfd41224	-1.6568036
104	0x3feb1e93	1.8368706
105	0xbebd1627	-0.36930963
106	0xbe9cbdb8	-0.30613494
107	0x3e5c531c	0.21516079
108	0xbf4f249a	-0.80915225
109	0xbebdcaa8	-0.37068677
110	0x3d8b0419	0.06787891
111	0x3f050868	0.5196595
112	0xbf6811a3	-0.9065191
113	0x3faf8001	1.3710939
114	0xbf0bf6c5	-0.54673415
115	0xbff4220a	-1.9072888
116	0x3f975bd1	1.1824895
117	0xbf818313	-1.0118126
118	0xbfeef283	-1.8667759
119	0xbee07f82	-0.4384728
120	0x3f778684	0.9668963
121	0x3f4636e4	0.77427506
122	0x3f8fc084	1.1230626
123	0x3e7d02d9	0.24708118
124	0xbf2ec484	-0.6826861
125	0xbf038935	-0.51381236
126	0xbe5a6d79	-0.21330823
127	0x3d56e99f	0.052468892
128	0xbef12f98	-0.47106624
129	0x3d82c6ae	0.063855514
130	0xbe4f1cee	-0.2022588
131	0xbe83cafb	-0.257408
132	0x3e25efdb	0.16204779
133	0x3e826c07	0.25473043
134	0x3eb4c025	0.35302845
135	0x3da4ac82	0.08040716
136	0x3c81e12c	0.01585444
137	0xbefc0e92	-0.49229866
138	0xbe3a19b5	-0.18173869
139	0xbee3bc92	-0.44479805
140	0x3f04f955	0.5194295
141	0xbe7c7ef2	-0.24657801
142	0xbeefce95	-0.46837297
143	0xbdc00f5b	-0.09377929
144	0xbed67f66	-0.41894072
145	0x3ba18652	0.0049293423
146	0xbee2409c	-0.44189918
147	0xbf38d7e1	-0.72204405
148	0xbf86f0fe	-1.0542295
149	0xbeacd0d7	-0.33753082
150	0x3e69274d	0.22768898
151	0xbdcc613b	-0.09979483
152	0xbe839829	-0.25702026
153	0xbf9ef0d4	-1.2417245
154	0x3fa7903b	1.3090891
155	0xc05d3c66	-3.4568114
156	0xc071e15f	-3.7793806
157	0xc0b4297b	-5.6300635
158	0xbfcadcf0	-1.5848675
159	0x3fb7483b	1.4318918
160	0x3f4f44ff	0.80964655
161	0xc096bc7c	-4.7105083
162	0x3f92abd3	1.1458687
163	0x3fe86f0e	1.8158891
164	0xbfb95183	-1.4478
165	0xbfa5af14	-1.2944055
166	0xbf41e9d5	-0.75747424
167	0xbfe605bf	-1.7970504
168	0x3de614f7	0.112344675
169	0xbe2a007e	-0.1660175
170	0xbe3b7519	-0.18306388
171	0xbe1e4fa5	-0.1546007
172	0xbda14b64	-0.07875708
173	0xbe00656a	-0.12538686
174	0xbebb3951	-0.36567166
175	0xbeb9adb2	-0.36265332
176	0xbf5ba086	-0.85791814
177	0x3e6a1246	0.22858533
178	0xbf00ad19	-0.50264126
179	0xbe58013a	-0.21094218
180	0xbf6712f4	-0.90263295
181	0xbf325c98	-0.69672537
182	0xbef5a11f	-0.47974488
183	0x3f1833fc	0.5945432
184	0xbd6304fe	-0.055424683
185	0xbec393b2	-0.3819862
186	0xbeff4e5a	-0.49864465
187	0xbf18f36e	-0.59746444
188	0xbf6033fb	-0.87579316
189	0xbe357cc0	-0.1772337
190	0xbd97c61a	-0.07410832
191	0x3d24e97e	0.040261738
192	0xbf22ad51	-0.6354571
193	0x3da2a191	0.079409726
194	0xbf028cb9	-0.50995976
195	0xbdf4a461	-0.11945415
196	0xbfa73bc5	-1.3065115
197	0xbf312f22	-0.69212544
198	0xbf14f76e	-0.5819005
199	0xbfdf8898	-1.746356
200	0xbf945825	-1.15894
201	0x3df89816	0.12138383
202	0xbecacb94	-0.39608443
203	0xbf62418c	-0.88381267
204	0xbeadbe56	-0.33934277
205	0xbebea9c8	-0.37238908
206	0xbfe6a019	-1.8017608
207	0xbecee522	-0.4040919
208	0xbf0c9c32	-0.54925835
209	0xbe65edbe	-0.22453973
210	0xbe288761	-0.16457893
211	0x3d3e6960	0.046487212
212	0xc02850e7	-2.629938
213	0xbdbd25b1	-0.09235705
214	0xbea356f6	-0.31902283
215	0xbe8147b2	-0.25250012
216	0x404ac25f	3.1681135
217	0x3fc0dba4	1.5067029
218	0xc004742a	-2.06959
219	0xc109080f	-8.564467
220	0xc1161a27	-9.381385
221	0x3fb7a129	1.4346057
222	0x3f659d06	0.89692724
223	0xbfbf1838	-1.4929266
224	0xbee48a9f	-0.4463701
225	0xbf3e4e3c	-0.74338126
226	0xbf8b61f6	-1.088927
227	0xbe9fe76b	-0.31231245
228	0x3f05de42	0.52292264
229	0x3f095fb5	0.5366166
230	0x4016632d	2.3498032
231	0xbdfe02f9	-0.12402911
232	0x3cfd3289	0.030907886
233	0xbea88f42	-0.32921797
234	0x39aca3d7	0.00032928467
235	0xbe7f5c9e	-0.24937674
236	0xbe8d6844	-0.2761861
237	0xbc50c6f7	-0.012742749
238	0xbe1446ba	-0.14480105
239	0xbeba1cf2	-0.3635021
240	0xbe83a825	-0.25714222
241	0xbc7804ee	-0.015137894
242	0x3c8cd1ce	0.017189886
243	0xbee2ac62	-0.44272143
244	0xbdfe230c	-0.124090284
245	0xbc63ffba	-0.01391595
246	0x3e9119a6	0.2833988
247	0xbe719498	-0.2359184
248	0x3d8c1d8b	0.068415724
249	0xbe1b749e	-0.15181205
250	0x3dc1e5a7	0.09467631
251	0x3dade8d3	0.08491673
252	0x3dc578c5	0.096421756
253	0xbe95966f	-0.29216334
254	0x3e15acc9	0.14616694
255	0xbe5e6c98	-0.21721113

fc1.bias f4 [256]
0	0x3cc9db43	0.024640685
1	0xbfd9e487	-1.7022866
2	0x3edfee5b	0.43736538
3	0x3e47a70d	0.19497319
4	0xc0a1d914	-5.057749
5	0xbfa29d83	-1.2704319
6	0xbe9f089b	-0.31061253
7	0xbebcfe92	-0.36912972
8	0xbeda0043	-0.42578325
9	0xbe6ae2e0	-0.22938108
10	0xbe986370	-0.29763365
11	0xbc8b20a1	-0.016983332
12	0x3d76106c	0.060074255
13	0xbe7ebf70	-0.24877715
14	0xbe556d8c	-0.2084257
15	0x3ef46afc	0.47737873
16	0x3efe124c	0.49623334
17	0xbe981b3c	-0.29708278
18	0xbe19c223	-0.15015464
19	0xbd7a21b2	-0.06106729
20	0x3f88d0b0	1.0688686
21	0xbe8f38e4	-0.27973092
22	0x3fc0e9c4	1.507134
23	0xbec14cd2	-0.37753922
24	0xbe9f93ab	-0.3116735
25	0xbd84cde1	-0.06484581
26	0xbef7ed93	-0.48423442
27	0xbdec0f2f	-0.115263335
28	0x3d2acbf3	0.041698407
29	0xbe5d4f2a	-0.2161223
30	0xbb3446bd	-0.0027507984
31	0xbd0f0e55	-0.034925777
32	0xbf251929	-0.64491516
33	0x402ecff9	2.7314436
34	0xbdb37617	-0.08762758
35	0xbe6c1080	-0.23053169
36	0xbe572545	-0.21010311
37	0xbe009c5b	-0.12559645
38	0x3dedd0e0	0.11612105
39	0xc05314ba	-3.29814
40	0xbe2666dc	-0.16250175
41	0xbe47f284	-0.19526106
42	0x3e0acf9b	0.13555758
43	0xbe8499d0	-0.258986
44	0xbe5ced3e	-0.21574876
45	0x3f14db49	0.581471
46	0xbdfb83cb	-0.12280997
47	0xbe63b84d	-0.22238274
48	0xbe895940	-0.26825905
49	0x3ef4fa3a	0.47847158
50	0xbedd0d89	-0.4317439
51	0xbf449dba	-0.7680317
52	0x3f88659f	1.0656012
53	0xbe9bfa77	-0.30464527
54	0xbe317ce2	-0.17332795
55	0xbfe3d21f	-1.7798499
56	0xbe4b890d	-0.198765
57	0x3d899c45	0.06719259
58	0xbec01583	-0.37516412
59	0xbea4406b	-0.32080397
60	0xbf219630	-0.6311979
61	0x3edfead8	0.4373386
62	0xbebb5928	-0.36591458
63	0xc0860323	-4.187883
64	0xbd598d9f	-0.053113576
65	0x3c8a7a23	0.016903942
66	0x3e97f68e	0.29680294
67	0x40b113dc	5.5336742
68	0xbd217b52	-0.039424248
69	0x3d6e444a	0.058170594
70	0xbe7d7f48	-0.24755585
71	0xbd5dfb1c	-0.054194555
72	0xbc5693c6	-0.013096755
73	0xbe7772d0	-0.24164891
74	0xbde35ea2	-0.11102034
75	0x3d44bd0f	0.048031863
76	0xbcfe8ddf	-0.031073509
77	0xbe948fe2	-0.29016024
78	0xbfb91fca	-1.4462826
79	0xbe13892b	-0.14407794
80	0xbef7c0ec	-0.48389375
81	0xbefa7a70	-0.48921537
82	0xbeeb00fe	-0.45899194
83	0x3df80f52	0.12112297
84	0x3e1f0fe8	0.15533412
85	0x3db499cf	0.08818399
86	0x40718ef5	3.7743504
87	0xbf5317a0	-0.82457924
88	0xbe3d8616	-0.18508181
89	0x3e8a0ec3	0.26964387
90	0xbf2a121c	-0.6643388
91	0xbe08cb1c	-0.1335873
92	0x3e1cb89b	0.15304796
93	0xbe570951	-0.20999648
94	0xbd940ba1	-0.072287805
95	0xc0aa8557	-5.328777
96	0xbe6eea77	-0.23331629
97	0xbf21e0d1	-0.6323367
98	0x3e8c25ae	0.27372497
99	0xbe7771a1	-0.2416444
100	0xbf0aab09	-0.5416723
101	0x3e3806be	0.17971322
102	0x3d8fce96	0.07021825
103	0x3c538401	0.01290989
104	0xbec2542f	-0.37954852
105	0xbfc547f3	-1.5412582
106	0xbe0bc4aa	-0.1364924
107	0xc0cbcd55	-6.368815
108	0xbfbc7ae9	-1.4725009
109	0xbff1c36b	-1.8887762
110	0xbf0e4f36	-0.55589616
111	0xbd6ae72b	-0.057349365
112	0xbd57a8ae	-0.0526511
113	0xbf30ac1e	-0.6901263
114	0xbe3cb9b5	-0.18430217
115	0xc0043b40	-2.0661163
116	0xbee07ebf	-0.438467
117	0xbc60b430	-0.013714835
118	0x3ffd8944	1.9807515
119	0xbe8f3d79	-0.27976587
120	0x3e8d46eb	0.2759317
121	0xbe8575ad	-0.26066342
122	0x3ba7aeea	0.005117287
123	0x3f503df6	0.81344545
124	0x3fa1f82f	1.2653865
125	0xbe0d8a44	-0.13822275
126	0xbe892339	-0.26784685
127	0x3f3d2669	0.73886734
128	0xbe40620a	-0.18787399
129	0xbe023954	-0.12717181
130	0xbeeb8689	-0.4600108
131	0x3da03db7	0.07824271
132	0xbea12e67	-0.31480715
133	0x3f8b7379	1.0894614
134	0xbfde7ce2	-1.7381861
135	0x3e9c7357	0.30556747
136	0xbf236dad	-0.63839227
137	0xbf79bb07	-0.97551006
138	0xbeabdfd9	-0.3356922
139	0x3e1cff00	0.1533165
140	0xc000c5d5	-2.0120747
141	0x3eb5f4a3	0.35538206
142	0xbe13167c	-0.14364046
143	0xbe01c860	-0.12674093
144	0xbec8426d	-0.3911318
145	0xbe5d5c8f	-0.2161734
146	0xbf0e6e5c	-0.55637145
147	0xbf93b87e	-1.1540678
148	0xc0f5d916	-7.6827497
149	0xc0583940	-3.3784943
150	0xbf0d443e	-0.55182254
151	0xbdabb3b9	-0.08383889
152	0x3d3c987e	0.046043865
153	0xbc2321c2	-0.009956779
154	0xbf582438	-0.84430265
155	0x3e56ff1b	0.20995753
156	0xbf90b3d0	-1.1304874
157	0x3f0c1177	0.5471415
158	0xbe09da69	-0.13462223
159	0x3d669829	0.056297455
160	0xbf298330	-0.662158
161	0x3f02eeb4	0.5114548
162	0xbfc5d8e7	-1.5456818
163	0xc042b625	-3.0423672
164	0xbe7cf63e	-0.24703309
165	0x3e20a1bc	0.15686697
166	0xbbe197bc	-0.006884543
167	0xbcc3dd64	-0.023909278
168	0xbed5e8b0	-0.4177909
169	0xbe8a0ae3	-0.2696143
170	0xbf81d30c	-1.0142531
171	0xbf927f8e	-1.1445177
172	0x3ee57cc8	0.44821763
173	0xbf66708e	-0.90015495
174	0xbea13c39	-0.3149126
175	0xbd645b97	-0.05575141
176	0xbf2e4d7a	-0.6808697
177	0xbf6db916	-0.92860544
178	0x3f28d529	0.65950257
179	0xbe8fadca	-0.28062278
180	0x3f344f29	0.7043329
181	0xbdbd9b58	-0.09258145
182	0x3da8bda7	0.08239298
183	0xbf7a3c53	-0.977483
184	0xbe397856	-0.18112311
185	0xbfda240a	-1.7042248
186	0xbecc34af	-0.39883944
187	0x3fb95018	1.4477568
188	0x3f541e5e	0.82858837
189	0xbe75208c	-0.23938197
190	0xbf388e27	-0.7209191
191	0x3cd1d12f	0.025612442
192	0x3cce3735	0.02517281
193	0xbe9517f6	-0.29119843
194	0xbe89d12d	-0.269174
195	0x3df69dea	0.120418385
196	0xbe52ba1d	-0.20578809
197	0x3ecf8d48	0.40537477
198	0xbe5ef8db	-0.21774618
199	0xbf0c2414	-0.5474255
200	0xbe72c4d6	-0.237079
201	0x3d380a89	0.044931922
202	0xbf065695	-0.52475864
203	0xbff94ec9	-1.9477168
204	0xbe5422bd	-0.20716377
205	0xc08294d8	-4.0806694
206	0xbea83f3a	-0.32860738
207	0xbb43c0d2	-0.0029869569
208	0xbef5c1d2	-0.47999436
209	0xbd7a99b0	-0.061181724
210	0x3f0ec0bf	0.5576286
211	0xc0809c58	-4.019085
212	0x3d0547bc	0.032539114
213	0x3dedf3d6	0.11618774
214	0xbea26ccd	-0.31723633
215	0x3bc34d65	0.005960154
216	0xbf01ab86	-0.5065235
217	0xbdd4b168	-0.103854
218	0x3e457d04	0.19285971
219	0x3f0b4708	0.5440526
220	0xbef0fe98	-0.4706924
221	0xc0983006	-4.755862
222	0x3e106106	0.14099512
223	0xbdebc820	-0.1151278
224	0xbf143e21	-0.579073
225	0x3f26755e	0.6502284
226	0xbe4e16c8	-0.20125878
227	0xc043067f	-3.0472715
228	0xbe50808e	-0.2036154
229	0x3e6f9cab	0.23399608
230	0xbee43358	-0.44570422
231	0xbe0dfac5	-0.13865192
232	0xbd0afd55	-0.033933003
233	0xbdcd00b1	-0.100098975
234	0x3e256a01	0.16153719
235	0x3ccf8b5a	0.025335003
236	0x3d3f216e	0.04666274
237	0xbf419ac7	-0.75626796
238	0xbe0ba19b	-0.13635866
239	0xbeeac7a8	-0.4585545
240	0xbf54481e	-0.8292254
241	0xbd72c685	-0.059271354
242	0x3f3127ef	0.6920156
243	0xc012649f	-2.2873914
244	0x3f18dfbc	0.5971639
245	0xc01dd914	-2.4663744
246	0xbf2c0263	-0.6719114
247	0xbdbfb750	-0.09361136
248	0xbe303381	-0.17207147
249	0xbf92e526	-1.147618
250	0xbf459e99	-0.77195126
251	0xbf0457ab	-0.5169627
252	0xbe9a6126	-0.30152243
253	0xbf0e3e90	-0.5556421
254	0x3f35f682	0.71079266
255	0xbe9737a9	-0.29534653

fc2.weight f4 [256, 256]
0	0xbd3dde6e	-0.046354704
1	0x3c741aba	0.01489895
2	0xbd57a2c0	-0.052645445
3	0xbd499416	-0.04921349
4	0xbcb7869c	-0.022403054
5	0xbd162d66	-0.03666439
6	0xbd0b69c8	-0.034036428
7	0x3ce6067d	0.028079266
8	0xbd87cccb	-0.06630858
9	0xbd940ace	-0.07228623
10	0x3c9e30f1	0.019310446
11	0xbdb12876	-0.086502954
12	0xbd7609bd	-0.06006788
13	0xbca7b4a9	-0.020471888
14	0x3d47c6fd	0.048773754
15	0xbd154cd4	-0.036450222
16	0xbe4c42f6	-0.19947419
17	0xbcb6dd04	-0.022322185
18	0xbd4331a2	-0.047654755
19	0x3d5ccab8	0.053904265
20	0xbe067e2c	-0.13134068
21	0xbc6b23da	-0.014351809
22	0x3b3a406f	0.0028419753
23	0xbd10760b	-0.035268825
24	0x3cba1c23	0.022718495
25	0xbd1ca78c	-0.038245723
26	0x3d650d36	0.055920802
27	0xbd90aaf6	-0.07063858
28	0x3c88d6ba	0.016703952
29	0xbd22a9a8	-0.039712578
30	0xbd735e2d	-0.059415985
31	0xbd7fe946	-0.062478326
32	0xbdb1156a	-0.086466625
33	0x3c398dde	0.011325328
34	0x3c8373cc	0.016046427
35	0x3cd38fcb	0.025825402
36	0xbc34bb28	-0.01103095
37	0x3cc23118	0.02370505
38	0x3c8a58a8	0.016887978
39	0xbe9a1f6a	-0.30102092
40	0xbd09a1a2	-0.03360141
41	0x3c42d9f0	0.011892781
42	0xbcfd2e88	-0.030905977
43	0x3cfd8bc3	0.030950433
44	0xbd7604fa	-0.06006334
45	0xbd3eb823	-0.046562325
46	0x3d737704	0.059439674
47	0xbd72eb18	-0.059306234
48	0x3cef1481	0.029184582
49	0xbc4b4440	-0.012406409
50	0xbc6d6327	-0.014488972
51	0xbbcbc8f3	-0.0062190234
52	0xbe1c252c	-0.15248555
53	0xbd0ff3be	-0.03514456
54	0x3c978590	0.018496305
55	0xbdcb29a8	-0.09920055
56	0xbd4d0379	-0.05005214
57	0x3ccfaa39	0.025349723
58	0x3d3c604e	0.04599028
59	0xbd8264ac	-0.06366858
60	0xbca2e7a7	-0.019885851
61	0xbd3d79ea	-0.046258844
62	0xbcae5e61	-0.021285238
63	0xbd0eedc9	-0.03489474
64	0xbd267ec6	-0.040648244
65	0xba1fd9fc	-0.0006097851
66	0xbdb9bdd5	-0.09069411
67	0xbc88ea87	-0.016713394
68	0xbe0fdf1f	-0.14049958
69	0xbd73c3a4	-0.05951275
70	0xbba06e4c	-0.004895961
71	0xbd3adf04	-0.04562284
72	0x3c1bcf18	0.009509824
73	0xb9cc1e97	-0.00038932703
74	0xbc52a4d8	-0.012856685
75	0xba93aaae	-0.0011266076
76	0xbd79b0e8	-0.060959727
77	0xbd989c76	-0.074517176
78	0xbdb89b0b	-0.09013947
79	0xbc227220	-0.009914905
80	0x3c74a6fd	0.014932391
81	0xbd27a067	-0.040924456
82	0x3ce8e63e	0.0284301
83	0xba0b67a7	-0.00053178746
84	0xbdf922d0	-0.12164843
85	0x3c52edd0	0.012874082
86	0xbdc5e0c4	-0.09662011
87	0xbe167d8f	-0.14696334
88	0xbd040fbc	-0.032241568
89	0xbc917a38	-0.017758474
90	0xbdc4c7f8	-0.096084535
91	0xbd3076d2	-0.043082066
92	0x3c83a474	0.016069628
93	0x3d4e813f	0.050416227
94	0xbc84b49a	-0.016199399
95	0xbe674b50	-0.22587323
96	0xbd7f1dda	-0.062284328
97	0xbcb0aa00	-0.021565437
98	0xbd36ef20	-0.04466164
99	0x3d2e8d30	0.042615116
100	0x3d0bfb6d	0.034175325
101	0xbd357f1f	-0.044310685
102	0x3b4bf954	0.0031123953
103	0xbacdb800	-0.0015695095
104	0xbcac931e	-0.021066245
105	0xbe166425	-0.1468664
106	0x3cbe9a29	0.023266869
107	0xbe12ee51	-0.14348723
108	0x3ae141a3	0.0017185699
109	0xbe256469	-0.16151585
110	0xbdef5857	-0.11686771
111	0xbde2d952	-0.11076607
112	0xbcb28c40	-0.021795392
113	0xbe1d83ac	-0.1538226
114	0x3cbc9868	0.023021892
115	0xbc9f634e	-0.019456532
116	0x3d553b54	0.052058533
117	0x3d47ebf9	0.048809025
118	0xbdefc174	-0.1170682
119	0xbd7c6d89	-0.0616279
120	0xbddeafc2	-0.10873367
121	0xbcb0e994	-0.021595754
122	0xba01b300	-0.00049476326
123	0x3d115635	0.035482604
124	0x3c87ac29	0.016561585
125	0x3c2172e0	0.0098540485
126	0x3c9f6426	0.019456934
127	0xbcdc5ded	-0.026900256
128	0x3d1cbddd	0.038267005
129	0x3cccddf6	0.025008183
130	0xbbd1148c	-0.006380623
131	0xbd22bb08	-0.03972915
132	0xbd5cd5be	-0.053914778
133	0xbd6bd032	-0.057571597
134	0xbc7c557f	-0.015401243
135	0xbd1e55ea	-0.038656153
136	0xbdcf7059	-0.101288505
137	0x3d1a1fff	0.03762817
138	0xb97bfb04	-0.00024030736
139	0xbce33ca8	-0.027738884
140	0xbd26da8b	-0.040735763
141	0xbd28ce59	-0.041212413
142	0xbd269d5c	-0.040677413
143	0xbcf35372	-0.029702876
144	0xbda04845	-0.07826284
145	0x3d331128	0.043717533
146	0x3aedd8db	0.0018146293
147	0x3d21acb3	0.03947134
148	0xbd4ee2fd	-0.05050944
149	0xbd4aca4b	-0.049509328
150	0xbe1c097e	-0.15237996
151	0x3d171394	0.036883906
152	0xbca0e9b8	-0.019642696
153	0x3b1dfcef	0.002410706
154	0xbd6d9b80	-0.058009624
155	0xbd265ba7	-0.04061475
156	0xbe191580	-0.14949608
157	0x3d3b8a3f	0.04578614
158	0xbda5ca41	-0.080952175
159	0xbda1710b	-0.07882889
160	0xbe318828	-0.17337096
161	0xbc7a126a	-0.015263179
162	0x3c181b0c	0.009283792
163	0xbe1abb43	-0.15110497
164	0xbd6ea2bb	-0.05826066
165	0xbd3b21cb	-0.045686524
166	0xbda94e4b	-0.08266886
167	0x3d004fe4	0.03132619
168	0x3cd4ca9d	0.02597552
169	0x3cfe5708	0.03104736
170	0xbafa0fc0	-0.001907818
171	0x3cb2f0b7	0.021843297
172	0x3d6dcf87	0.05805924
173	0xbdb72b38	-0.0894379
174	0xbc659c54	-0.014014322
175	0x3ce8c67e	0.028414961
176	0xbcb75dbf	-0.022383569
177	0xbdb0b3f6	-0.08628075
178	0xbd33507f	-0.04377794
179	0xbd2bfa2d	-0.041986633
180	0x3c889f85	0.016677627
181	0xbda7b44b	-0.08188685
182	0xbd86be51	-0.06579269
183	0xbbf5319e	-0.0074827215
184	0x3c640360	0.01391682
185	0xbeb8cf15	-0.3609549
186	0xbd481e8b	-0.048857253
187	0xbeec3eaf	-0.46141574
188	0xbd9dc40d	-0.07703409
189	0xbccf262c	-0.025286756
190	0x3ce377d9	0.027767109
191	0x3d0fee73	0.035139512
192	0xbe09fd91	-0.13475634
193	0xbe431da1	-0.19054271
194	0xbd761b58	-0.06008467
195	0xbd05e32b	-0.032687347
196	0x3d3d0489	0.046146903
197	0xbe258a69	-0.1616608
198	0xbd8089fe	-0.0627632
199	0x3d044840	0.032295465
200	0xbe59f889	-0.21286215
201	0x3d00fc6c	0.03149073
202	0xbe71c988	-0.23612034
203	0xbdf31df9	-0.11870951
204	0x3ccb936c	0.02485057
205	0xbb8d2257	-0.004307072
206	0x3d13e7a7	0.036109593
207	0xbd59b0d3	-0.05314715
208	0xbe06cdcc	-0.13164443
209	0x3d1619fc	0.036645874
210	0xbda5dc34	-0.08098641
211	0xbce5f112	-0.028069053
212	0x3d6dac08	0.05802539
213	0x3cc86f98	0.024467275
214	0xbd4ce164	-0.050019637
215	0xbd88c20a	-0.06677635
216	0xbd2da931	-0.04239768
217	0x3c9f3c9f	0.019438086
218	0xbde357f8	-0.11100763
219	0xbe0c9a49	-0.1373073
220	0x3ce10762	0.02746934
221	0xbe12a831	-0.14321972
222	0xbe1c4ddf	-0.1526408
223	0xbd676220	-0.056490064
224	0xbd9e662f	-0.07734334
225	0xbc8cdcc6	-0.017195117
226	0xbd3aa881	-0.045570854
227	0xbb780240	-0.0037843138
228	0x3d1e92be	0.038714163
229	0xbd2f3d6f	-0.042783197
230	0xbd376f78	-0.04478404
231	0x3d2af17f	0.041734215
232	0xbc95341c	-0.018213324
233	0xbd64e855	-0.05588563
234	0xbd3ac941	-0.045602087
235	0x3d5f5b4e	0.054530434
236	0xbd7a1fc8	-0.061065465
237	0xbd823d95	-0.06359402
238	0x3d58842c	0.052860424
239	0xbc1777a8	-0.009244837
240	0xbd11c8a3	-0.035591733
241	0xbc9510e6	-0.018196534
242	0xbdea411f	-0.11438202
243	0xbdc976f0	-0.09837139
244	0xbd97706c	-0.0739449
245	0xbe3c353c	-0.18379682
246	0xbde1de6f	-0.11028754
247	0xbcb23aa7	-0.021756483
248	0xbd70be04	-0.058774963
249	0xbe1bf90e	-0.15231726
250	0x3d03f71c	0.032218084
251	0x3d1536ce	0.03642922
252	0x3d29be2d	0.04144113
253	0xbdde5470	-0.10855949
254	0xbc180a02	-0.00927973
255	0x3e22181c	0.1582951

fc2.bias f4 [256]
0	0xbeef64cc	-0.4675659
1	0xbed15ed7	-0.4089267
2	0xbebbf627	-0.36711237
3	0xbe66cb63	-0.22538523
4	0xbef79454	-0.48355353
5	0xbea095a8	-0.3136418
6	0xbe8b35be	-0.2718944
7	0xbecc281a	-0.39874345
8	0xc0105f81	-2.255829
9	0xbe752745	-0.23940761
10	0xbe95b1db	-0.29237255
11	0xbe9db423	-0.30801496
12	0xbf00f5a0	-0.50374794
13	0xbe6802dd	-0.22657342
14	0xbe8989c0	-0.26862907
15	0xbf1a1f39	-0.6020389
16	0xbed2a8d9	-0.41144446
17	0xbeaa51ab	-0.33265433
18	0xbf7aa824	-0.9791281
19	0xc01aa26c	-2.4161634
20	0xbe881af7	-0.26583073
21	0xbe6f4829	-0.2336737
22	0xbe1c7971	-0.15280701
23	0xbe98afeb	-0.29821715
24	0xbebffe6f	-0.37498805
25	0xbea490f5	-0.32141843
26	0xbfa0bd08	-1.2557688
27	0xbef399bf	-0.47578236
28	0xbf09c97d	-0.5382307
29	0xbe15f001	-0.14642335
30	0xbe7b6b77	-0.24552713
31	0xbe21d8da	-0.15805379
32	0xbe6abe29	-0.22924103
33	0xbeaa2a54	-0.3323542
34	0xbfa9843b	-1.3243479
35	0xbde9da70	-0.11418617
36	0xbea1f96d	-0.3163561
37	0xc068a2ea	-3.6349435
38	0xbd546ae2	-0.051859744
39	0xbebf13bb	-0.3731974
40	0xbe337512	-0.17525128
41	0xbf01f8f9	-0.5077053
42	0xbea20986	-0.3164789
43	0xbe91e072	-0.2849155
44	0xbe66dbdb	-0.22544806
45	0xbe72643a	-0.23671046
46	0xbe50afc5	-0.20379551
47	0xbf2429c7	-0.6412625
48	0xbe4b5a60	-0.19858694
49	0xbee154e6	-0.44010085
50	0xbde73222	-0.11288859
51	0xbf0f9cec	-0.5609882
52	0xbe3f42d1	-0.18677832
53	0xbeb8a047	-0.36059782
54	0xbe6652d1	-0.2249253
55	0xbea6bf57	-0.32567856
56	0xbec139cb	-0.37739405
57	0xbe98ca30	-0.29841757
58	0xbe1bb250	-0.1520474
59	0xbe7f3fa3	-0.24926619
60	0xbebb771a	-0.36614305
61	0xbe44af70	-0.19207549
62	0xbea3f823	-0.3202525
63	0xbebe3fa3	-0.37157926
64	0xbea69074	-0.32532084
65	0xbee8fbf5	-0.45504728
66	0xbe3660c1	-0.17810346
67	0xbf23a1e0	-0.63918877
68	0xbe40d5c5	-0.18831547
69	0xbec18423	-0.37796125
70	0xbe501a78	-0.20322597
71	0xbe62a8ba	-0.22134677
72	0xbe6dc071	-0.23217942
73	0xbe88af1b	-0.26696095
74	0xbe5c73ae	-0.21528503
75	0xbe4e8709	-0.201687
76	0xbe7784e8	-0.24171793
77	0xbe9839d9	-0.29731634
78	0xbe5b6c72	-0.21428087
79	0xbea7cc2d	-0.3277296
80	0xbeae819a	-0.34083253
81	0xbe47a33a	-0.1949586
82	0xbe6f7a33	-0.23386459
83	0xbeab9155	-0.33509317
84	0xbea987a6	-0.33111304
85	0xbea3cf64	-0.31994164
86	0xbe88787d	-0.26654425
87	0xbe467301	-0.19379808
88	0xbeb33649	-0.35002354
89	0xbcf05d6f	-0.029341428
90	0xbed57b7a	-0.41695768
91	0xbb6d31f1	-0.0036193097
92	0xbed58c09	-0.417084
93	0xbe91d4ee	-0.28482765
94	0xbe267279	-0.16254605
95	0xbf07fc98	-0.531198
96	0xbe8bdb3e	-0.27315706
97	0xbf825654	-1.0182595
98	0xbee8f05d	-0.45495883
99	0xbe980fb6	-0.29699486
100	0xbe356d53	-0.17717485
101	0xbee2a965	-0.44269863
102	0xbe99553b	-0.29947838
103	0xbe291136	-0.16510472
104	0xbeaa32e0	-0.3324194
105	0xbf83ed0c	-1.0306716
106	0xbe6183b1	-0.22022893
107	0xbe19a383	-0.15003781
108	0xbea57765	-0.32317653
109	0xbe4dd52c	-0.2010085
110	0xbed517ba	-0.41619664
111	0xbe8f42bf	-0.2798061
112	0xbedfa335	-0.43679205
113	0xbe9f62e9	-0.3113015
114	0xbe954630	-0.2915511
115	0xbe5cf0ee	-0.21576282
116	0xbe5a851f	-0.21339844
117	0xbe920b2f	-0.28524157
118	0xbea872a3	-0.3289996
119	0xbe95f61d	-0.29289332
120	0xbe307413	-0.17231779
121	0xbe30f34a	-0.17280307
122	0xbeeafb07	-0.45894644
123	0xbed6ef6a	-0.41979533
124	0xbea5978d	-0.32342187
125	0xbee69b95	-0.45040575
126	0xbe67fccd	-0.2265503
127	0xc03e8891	-2.9770854
128	0xbf52d39d	-0.82354146
129	0xbe45122f	-0.19245218
130	0xbe5767cf	-0.21035694
131	0xbe1f4482	-0.15553477
132	0xbe8353da	-0.2564991
133	0xbe9199ab	-0.28437552
134	0xbe55fbf1	-0.2089689
135	0xbe29ba3f	-0.16574953
136	0xbe14128d	-0.14460202
137	0xbeedcc12	-0.46444756
138	0xbe749040	-0.23883152
139	0xbeafe44c	-0.34353864
140	0xbe7cfa21	-0.24704792
141	0xbf8f903f	-1.1215895
142	0xbe330fc3	-0.17486481
143	0xbea2c96c	-0.31794298
144	0xbe8116f1	-0.25212815
145	0xbe81fcf1	-0.2538829
146	0xbe95e748	-0.29278016
147	0xbde6036b	-0.11231121
148	0xbe889b6b	-0.26681075
149	0xbe312c62	-0.17302087
150	0xbec8d25e	-0.39222997
151	0xbfabfe58	-1.3436995
152	0xbe823a07	-0.25434896
153	0xbe9cd3ac	-0.30630243
154	0xbe96822a	-0.29396182
155	0xbeaf949c	-0.34293067
156	0xbec0252e	-0.37528366
157	0xbe623df0	-0.2209394
158	0xbebe9d32	-0.37229306
159	0xbebec92a	-0.3726285
160	0xbfb36bb7	-1.4017247
161	0xbe95587a	-0.29169065
162	0xbed73a0b	-0.4203647
163	0xbe60b7ec	-0.2194516
164	0xbe0de749	-0.1385776
165	0xbef8c732	-0.48589474
166	0xbefba54b	-0.49149546
167	0xbe5bf0bc	-0.21478552
168	0xbea3dd3c	-0.32004726
169	0xbe24bc77	-0.16087519
170	0xbe8686fd	-0.26274863
171	0xbead04a0	-0.3379259
172	0xbe999ef9	-0.300041
173	0xbe166aa1	-0.14689113
174	0xbeb6c8c6	-0.35700053
175	0xbe996da0	-0.2996645
176	0xbee78c56	-0.45224255
177	0xbe5a5fcd	-0.21325608
178	0xbdfda9c8	-0.12385899
179	0xbe12b293	-0.14325933
180	0xbe53c62b	-0.20681064
181	0xbe97951a	-0.29605943
182	0xbe9627df	-0.29327294
183	0xbef7d3df	-0.48403832
184	0xbe65a784	-0.22427183
185	0xbe887198	-0.26649165
186	0xbe584ea6	-0.21123752
187	0xbf08fa76	-0.53507173
188	0xbe28b8cd	-0.16476746
189	0xbe62aafc	-0.22135538
190	0xbe022766	-0.12710342
191	0xbe6003d1	-0.21876456
192	0xbfb0c98f	-1.3811511
193	0xbe705992	-0.23471668
194	0xbebe981c	-0.37225425
195	0xbe1aff7b	-0.1513652
196	0xbe0ffd2f	-0.14061426
197	0xbe8f650c	-0.2800678
198	0xbebd0878	-0.36920524
199	0xbe66b64a	-0.22530475
200	0xbe5dfcab	-0.21678416
201	0xbe19588f	-0.14975189
202	0xbeb82972	-0.3596912
203	0xbe7fd3a8	-0.24983084
204	0xbea489b3	-0.32136306
205	0xbe419564	-0.18904644
206	0xbec2726d	-0.37977925
207	0xbe90beb1	-0.28270486
208	0xbe3f1eb7	-0.1866406
209	0xbee3d817	-0.445008
210	0xbedd53ec	-0.4322809
211	0xbe57bd17	-0.21068226
212	0xbf0c22af	-0.5474042
213	0xbec330b0	-0.38123083
214	0xbe8d62bb	-0.27614388
215	0xbeb6e2f2	-0.3572002
216	0xbe8c2759	-0.2737377
217	0xbe4028de	-0.1876559
218	0xbe6c8176	-0.2309626
219	0xbfb77c28	-1.4334764
220	0xbe5e4b1b	-0.21708338
221	0xbecf10e3	-0.4044257
222	0xbeb962a9	-0.36208084
223	0xbe1351a1	-0.14386608
224	0xbea713d9	-0.3263233
225	0xbe9ad455	-0.3024012
226	0xbe92814d	-0.28614274
227	0xbf12b19c	-0.5730226
228	0xbe9e7def	-0.30955455
229	0xbfe24ce1	-1.7679712
230	0xbe3c4645	-0.1838618
231	0xbe6cf5a4	-0.2314058
232	0xbe0b02fe	-0.1357536
233	0xbeb03e9c	-0.34422767
234	0xbebf7edb	-0.3740147
235	0xbe92fbfe	-0.2870788
236	0xbe89ab81	-0.2688866
237	0xbe9b6407	-0.30349752
238	0xbe594ab4	-0.21219903
239	0xbedd793a	-0.4325655
240	0xbe92a451	-0.28640988
241	0xbe64d6b8	-0.22347534
242	0xbdbae545	-0.09125761
243	0xbed4faf8	-0.41597724
244	0xbe939f75	-0.28832594
245	0xbef2c5b9	-0.47416475
246	0xbebe0b5c	-0.37118042
247	0xbeeb42d1	-0.45949414
248	0xbeb8fa0b	-0.36128268
249	0xbdb07ec9	-0.08617932
250	0xbe956372	-0.29177433
251	0xbeb45b03	-0.35225686
252	0xbe84f3b6	-0.25967187
253	0xbe5e80f2	-0.21728876
254	0xbefe89d9	-0.49714544
255	0xbede6a1f	-0.4344034

fc3.weight f4 [45, 256]
0	0x3d3237f2	0.043510385
1	0x3dd6d94e	0.10490666
2	0x3dda1720	0.10648942
3	0xbd007ecc	-0.031370923
4	0x3e1fd188	0.15607274
5	0xbb8c2a60	-0.0042775124
6	0x3d0cdb1d	0.03438865
7	0x3dc819f9	0.09770579
8	0x3d2998f4	0.041405633
9	0x3d9e845d	0.0774009
10	0x3bcbaa00	0.006215334
11	0xba8aaebe	-0.0010580642
12	0xbccbb9b0	-0.024868816
13	0x3c636a20	0.013880283
14	0x3e33e408	0.17567456
15	0x3e8cb5be	0.27482408
16	0xbccce00c	-0.025009178
17	0xbbc79610	-0.006090887
18	0xbe5c2b66	-0.2150093
19	0x3ef6edc3	0.48228273
20	0x3b1c1b60	0.0023820028
21	0x3dd67e14	0.10473266
22	0x3da98961	0.08278156
23	0x3de5dc4c	0.11223659
24	0x3cdc32c0	0.026879668
25	0x3d860b67	0.065451436
26	0xbd80e2f6	-0.06293289
27	0xbd223e45	-0.039610166
28	0xbc54f07c	-0.012996789
29	0x3b167c20	0.0022962168
30	0xbbcfa7f0	-0.0063371584
31	0x3e0f7d04	0.14012533
32	0x3e17f45f	0.14839314
33	0xbb6589e9	-0.0035024828
34	0x3ea4d09a	0.321904
35	0x3caf4d18	0.021399066
36	0xbc9a6580	-0.018847227
37	0x3e65bcfd	0.22435375
38	0x3d04490b	0.03229622
39	0x3e088a55	0.1333402
40	0x3e713a7d	0.23557468
41	0xbdbb644d	-0.0914999
42	0xbd0782d4	-0.03308375
43	0xbd623c1b	-0.055233102
44	0xbced3a98	-0.028958604
45	0xbd608d34	-0.05482216
46	0x3e04549c	0.12922901
47	0x3efc90dc	0.4932927
48	0xbdf3411e	-0.118776545
49	0xbd69dc31	-0.057094757
50	0xbd11b828	-0.035576016
51	0x3e004910	0.12527871
52	0xbde4b539	-0.11167378
53	0x3e11448b	0.14186303
54	0x3df1f08f	0.11813461
55	0x3d3dc8f0	0.046334207
56	0xbd1ae3e7	-0.037815
57	0x3c584910	0.013201013
58	0x3d3fbe49	0.04681233
59	0xbcf65b24	-0.030072756
60	0x3cc15cf4	0.023603894
61	0x3e94f22e	0.29091018
62	0xbd74c1c9	-0.05975512
63	0x3d2e8d08	0.042614967
64	0x3f0b3b02	0.54386914
65	0xbd3975a0	-0.04527819
66	0x3bf7e99a	0.0075656893
67	0x3ee0ce9d	0.43907633
68	0xbd6acce8	-0.05732432
69	0xbe11f6fc	-0.14254373
70	0x3d9decd1	0.07711185
71	0x3decc224	0.11560467
72	0x3e0e5fd9	0.1390375
73	0xbd7415b1	-0.059591
74	0x3d785988	0.06063226
75	0xbd392aa6	-0.04520669
76	0x3a58a9c5	0.0008265044
77	0x3dd1328d	0.1021472
78	0x3d17e144	0.037080064
79	0x3e25f418	0.16206396
80	0x3e064d94	0.13115531
81	0xbcd752b4	-0.026284553
82	0xbd039096	-0.03212031
83	0x3e1e659d	0.1546845
84	0xbc11e42b	-0.008904497
85	0xbd3bbe8a	-0.04583601
86	0xbd4733d0	-0.048633397
87	0xbbe4c3f3	-0.006981367
88	0x3a24d880	0.00062883645
89	0x3f54420c	0.8291328
90	0x3d986467	0.07441025
91	0x408910d0	4.2833023
92	0x3deb833e	0.11499642
93	0xbceac5ea	-0.028658826
94	0x3da6a390	0.08136666
95	0x3e31e75e	0.17373416
96	0xbd314b7a	-0.04328487
97	0xbd9de358	-0.07709378
98	0x3e105da8	0.14098227
99	0xbc274af0	-0.010210738
100	0xbd7a2a9a	-0.061075784
101	0xbcb3a09b	-0.021927169
102	0x3da920f2	0.08258237
103	0xbd02294a	-0.031777658
104	0x3cf3cf34	0.029761888
105	0x3e4db538	0.2008866
106	0x3d6e80e4	0.05822839
107	0x3f211919	0.6292892
108	0x3e591a0f	0.21201347
109	0x3c035680	0.008016229
110	0x3e2fea84	0.17179304
111	0xbd7a56dd	-0.061117996
112	0xbcbaba45	-0.022793898
113	0x3bdfaf00	0.0068262815
114	0x3e088ff3	0.13336162
115	0xbd48296c	-0.048867628
116	0x3c44c3e8	0.012009598
117	0x3db2af06	0.08724789
118	0x3d47ea62	0.04880751
119	0xbd1d79de	-0.0384463
120	0xbd16e3d5	-0.03683837
121	0xbd8d8a37	-0.06911128
122	0x3e01dfe3	0.12683062
123	0xbd1548f2	-0.03644652
124	0x3bbcce60	0.0057619065
125	0x3d9c958a	0.0764571
126	0x3cb48d38	0.022039995
127	0x3e3934da	0.18086568
128	0x3f19e7c0	0.6011925
129	0x3d0692b8	0.032854766
130	0x3d2adc16	0.041713797
131	0x3de95fa2	0.11395194
132	0xbcd47f90	-0.025939733
133	0xbdb133a2	-0.08652426
134	0xbe1a69da	-0.15079442
135	0x3aff4868	0.0019476535
136	0xbde26544	-0.11054471
137	0x3f160fe0	0.58617973
138	0xbd2c0004	-0.041992202
139	0xbe224116	-0.15845141
140	0x3d1eb718	0.03874883
141	0x3ebab5f2	0.36466938
142	0x3dbcd57b	0.09220406
143	0xbc1b1466	-0.009465313
144	0x3d32abdf	0.04362094
145	0x3d164d5e	0.036694877
146	0xbde9eb4b	-0.11421832
147	0x3d43cbc0	0.047801733
148	0xbd0dd544	-0.034627214
149	0x3c4d8928	0.012544908
150	0xbcac51a1	-0.021035017
151	0x3e7c960f	0.24666618
152	0x3d3b71ae	0.04576271
153	0x3f33ae1b	0.7018754
154	0xbe21fe94	-0.1581977
155	0x3da7f07c	0.08200166
156	0x3da5ab78	0.08089346
157	0x3dde1228	0.10843307
158	0x3e524a6e	0.20536205
159	0x3b4509d0	0.0030065663
160	0x3e6c04e3	0.23048739
161	0xbd05eed0	-0.032698452
162	0x3db1d9df	0.08684134
163	0x3c93463c	0.017977826
164	0x3dc83bde	0.09777044
165	0xbd969944	-0.07353452
166	0x3e145aaa	0.1448771
167	0x3c77f6e0	0.015134543
168	0x3d338f49	0.04383782
169	0x3d059039	0.032608245
170	0xbd734d86	-0.059400104
171	0x3be381c0	0.0069429576
172	0x3d064380	0.032779217
173	0xbce032c8	-0.027367964
174	0x3d770ca6	0.060314797
175	0x3e044ee7	0.12920724
176	0x3cb2d918	0.021832034
177	0xbd34a35c	-0.044101104
178	0x3d5c5606	0.053792976
179	0x3cb18bf4	0.02167318
180	0xbbd81930	-0.0065947995
181	0xbd75c106	-0.059998535
182	0x3e15a2a6	0.14612827
183	0xbcf33104	-0.029686458
184	0xbc9d9da8	-0.019240215
185	0x3c8edfe2	0.01744074
186	0x3d713d61	0.058896426
187	0x3e1635e7	0.14669
188	0xbc96a5b0	-0.018389553
189	0x3e149f00	0.14513779
190	0x3c1be840	0.009515822
191	0xbbf684d0	-0.0075231567
192	0x3e8927ef	0.2678828
193	0xbcf0ba98	-0.02938585
194	0xbe0a1492	-0.1348441
195	0x3dd50942	0.104021564
196	0xbd0ec2e6	-0.03485384
197	0x3d819306	0.063268706
198	0xbd7370c4	-0.059433714
199	0xbced4cd4	-0.028967299
200	0xbd21d67a	-0.03951118
201	0x3e07a5fe	0.13246915
202	0x3cdaf7f3	0.02672956
203	0x3b6b10b8	0.003586812
204	0x3db111d5	0.08645979
205	0xbd66e1ae	-0.05636757
206	0xbd0dc777	-0.034614053
207	0x3de9e809	0.1142121
208	0x3e25c7c0	0.1618948
209	0xbd7aad0a	-0.06120018
210	0xbc10dca4	-0.008841667
211	0x3e58c9d5	0.21170743
212	0x3e629c01	0.22129823
213	0x3da57888	0.0807963
214	0xbd08c0f7	-0.03338715
215	0x3e1d25a1	0.15346386
216	0x3c3b8c11	0.011446969
217	0x3e0dee00	0.13860321
218	0x3d8552cf	0.06509935
219	0x3eb0e02f	0.34546039
220	0xbd87d6e0	-0.06632781
221	0x3e2127fd	0.1573791
222	0x3ca397f0	0.01996991
223	0xbc6aafd8	-0.014324151
224	0xbd0c3764	-0.034232512
225	0x3ca2198c	0.019787572
226	0x3defa420	0.11701226
227	0x3d8bc6ea	0.06825049
228	0xbbf1a7ad	-0.007374725
229	0x3f26e9c9	0.6520048
230	0xbd365780	-0.04451704
231	0x3c8ed80d	0.017437005
232	0x3ae17a18	0.0017202524
233	0x3db096d1	0.08622516
234	0xbc537142	-0.012905421
235	0xbd4c2533	-0.049840163
236	0x3d94dcd0	0.07268679
237	0x3dfe1f3a	0.124083
238	0x3e0a23d2	0.13490227
239	0x3d109c6f	0.035305437
240	0x3c2fc730	0.010728642
241	0x3b352920	0.002764292
242	0xbe0a931a	-0.13532677
243	0x3ddb1db7	0.10699027
244	0x3cf6b9b7	0.030117853
245	0xbbbbe580	-0.0057341456
246	0x3d676c62	0.056499846
247	0x3e36fb79	0.17869367
248	0xbd2baade	-0.041911
249	0x3d0fb06e	0.035080366
250	0x3ddf000d	0.108886816
251	0x3c2edc8b	0.010672699
252	0x3ced7174	0.028984763
253	0xbd3d222a	-0.04617516
254	0xbc044e5f	-0.008075326
255	0x3ca346bd	0.019931192

fc3.bias f4 [45]
0	0x410e49fc	8.893063
1	0x410e5499	8.895654
2	0x410e3c4a	8.889719
3	0x410e4a1e	8.893095
4	0x410eaff2	8.917955
5	0x410e417b	8.890986
6	0x410e448f	8.891738
7	0x410e5801	8.896485
8	0x410e946b	8.911235
9	0x410f1314	8.942158
10	0x410e58c5	8.896672
11	0x410e29f5	8.885243
12	0x410ec81f	8.923858
13	0x410f1ec4	8.945011
14	0x410ec493	8.922992
15	0x410e3eb7	8.890311
16	0x410e4c50	8.893631
17	0x410e5da9	8.897866
18	0x410e43dd	8.891568
19	0x410e755d	8.903653
20	0x410edf02	8.929445
21	0x410e544e	8.895582
22	0x410e8c44	8.909245
23	0x410e5144	8.89484
24	0x410eb5a0	8.919342
25	0x410e4811	8.892594
26	0x410ecd06	8.925055
27	0x410ec678	8.923454
28	0x410ef5b1	8.934983
29	0x410f0ee3	8.941134
30	0x410f35c4	8.950626
31	0x410eec84	8.932743
32	0x410ed459	8.926843
33	0x410e85c5	8.907659
34	0x410e73db	8.903285
35	0x410e405f	8.890716
36	0x410e867f	8.907836
37	0x410e906f	8.910262
38	0x410e466f	8.892196
39	0x410e7b13	8.905047
40	0x410e505c	8.894619
41	0x410e6b21	8.9011545
42	0x410e4c87	8.893683
43	0x410e9743	8.911929
44	0x410edde0	8.929169
