logs/PPO_preTrained/mTSP-v0/PPO_mTSP-v0_0_0.pth (torch, 61106 bytes, 11 tensors)

actor.0.weight f4 [64, 21]
00000000: 33d8 f23d f23d 4d3e 5e15 41bd 62eb 0bbe
00000010: 67a4 34be d869 72bd edcf 823a 07f8 c3bd
00000020: 8c86 77be d410 ebbc 8e86 00bc e7db d5bd
00000030: dc75 68be b660 a1be 401e 60bd 16f9 3e3d
00000040: 55b5 05be f37b 26be b6b6 2bbe c0c5 a2be
00000050: bb3b 90be 2c01 8abe 519e 15ba b14f 1f3d
00000060: 3153 18be bc59 5cbd 22fc 9bbd 1661 c7bd
00000070: 025c e2bd 8cbf 6dbe b900 e93b 861d a23d
00000080: 8b99 d83d c320 23be a0e5 423d 9a68 8ebe
00000090: 352c ac3d cc22 9bbe aecf 7ebd dffc 67be
000000a0: e588 60be 5f38 2ebd 42f8 893e 07fc ebbd
000000b0: 5238 92bc 8699 733b ab17 5e3e 7dcf 873d
000000c0: 190e 223e f479 a03d 5117 3abc cea3 83bc
000000d0: 9bf2 b2bc c929 43be 5106 ff3d bde4 773d
000000e0: f416 983d cade 9bbd 46cd 5d3e b81a f93d
000000f0: fa79 16be 3013 76be 1d67 43bd 8115 c2bc
00000100: d889 2cbd c8f0 983e 0052 6b3d c150 1abd
00000110: b9ef 0cbe cb55 c13c 5058 433d 370c 1abe
00000120: 3f3e 103e ed7a 113d ab32 0d3e 2cbd 373e
00000130: 4feb cf3d e0f9 5e3e 27f3 27be 8d2b a63d
00000140: 5c19 14be 8aae 0bbe 2815 883d 0628 8fbd
00000150: 36d6 383e 9017 f33c c4ca 6b3d d27b b03d
00000160: 4ab8 ccbd 1377 4b3e 019e f6bd a9ee 0dbe
00000170: c6b9 043b c6c7 923d 7d84 58be b998 643d
00000180: 5855 24be 78ed 533e b21d 2abe d6cf 32be
00000190: d55e 6b3e 30ee 5bbd 4a93 a63c 1871 3e3e
000001a0: d3aa e6bc bb21 013e f00f d5bc 65a0 55be
000001b0: 01fc 663e 56e9 49be 6ccd 0c3d 320b c7bd
000001c0: 7d82 7ebd ca22 7c3d 587d 1e3e 2714 04be
000001d0: d505 0a3e 470d 953d ca19 96bd a4a6 1b3e
000001e0: f167 a8bd 5b32 2dbe da12 16bd 48d7 9f3d
000001f0: 094a 4c3d 64f7 4ebe 7f6a 023e 72f0 5f3d
00000200: c62a 9b3d 2e1c 83be 4ad2 e3bc 5540 343e
00000210: 8c3e 64bd bb63 48be 0020 40bd ac59 35be
00000220: 18f4 1e3e f0fa 9ebc 9f39 b13d 3d09 9d3d
00000230: afda 71be d4e6 3fbe fc7d d33d 9612 95bd
00000240: 294e 24be 194c 34bd 5894 04be 6ba2 b3bd
00000250: ed10 e8bb eaa7 223d 5ec7 3f3e ba2b d6bd
00000260: 95f0 ee3b 447c 4c3e 2715 8cbd 5757 833e
00000270: 2a8c 2b3e 2494 de3d 6729 6bbd e117 6fbe
00000280: a3b2 ad3d 7392 d13d 3ffa 3f3e d568 963e
00000290: f433 643e 8eb6 843e 6e17 2f3d d818 ae3d
000002a0: 9a9d 3cbe 5b86 6dbe 9d98 273c 40d5 cf3b
000002b0: 023a 89bc 4859 a23d 9465 a5bd d3ec a0bd
000002c0: edd5 893e 208e c83d 8ec6 473e 440a 523e
000002d0: 47c1 303e 977a 953d 6434 a53e bec9 0e3e
000002e0: 8ed2 ab3e 9e23 e7bd a3b4 583e e6b2 04bd
000002f0: 69e7 ecbd 062c 003e 55d0 77be ef89 203e
00000300: 99a7 1ebe 9f9e f5bd abe7 e83d 99fe 1f3e
00000310: 36a2 293e f8f9 3bbe edc6 10be b74e 2e3c
00000320: 745d d73d 0a5d d9bc c5a0 e43d 9649 0fbe
00000330: aca7 a13d be1e 67bd 614d ac3c 7542 b0bd
00000340: 4828 2b3e 2791 4b3e 43ef de3d af80 bdbd
00000350: e521 343d 05a0 07be 751c 9cbe caad 7b3d
00000360: 2001 303e d68e 04be f00b 36be c8c8 1e3e
00000370: 4090 863d 82aa 833d b8d0 e9b9 970c c4bd
00000380: 5118 09be 1d4b d03d df05 a83d 2ec5 793c
00000390: fbbf 46be de6f 39be acdf 40be 76b3 dcbd
000003a0: 5ea9 323e 1c79 acbd fda6 623e b86b 8bbd
000003b0: facd 50be 079f 5cbe 2941 dd3d 34ec 2ebe
000003c0: a23c 7dbd d8d5 17be 5eb1 293e 979c 84be
000003d0: ba85 253e 6b8b b73d 29f7 a4bd 8ec4 d2bc
000003e0: 4f2c 693d 8e11 153d a310 723c 6686 ef3c
000003f0: f75a 303e f954 99be a6ae bfbc e334 3c3d
0.11857643 0.20043162 -0.047139518 -0.1366401 -0.1764084 -0.05918297 0.000998018 -0.09568792
-0.2417242 -0.028694548 -0.00784458 -0.10442334 -0.2270121 -0.31519097 -0.05471635 0.046624266
-0.13057454 -0.1625822 -0.16768917 -0.31791496 -0.2817057 -0.2695402 -0.000570749 0.03889436
-0.14875485 -0.053796515 -0.0761645 -0.097353145 -0.11052705 -0.232176 0.007110682 0.079157874
0.10576161 -0.15930466 0.04758227 -0.2781418 0.08406869 -0.30299985 -0.062209778 -0.22655056
-0.21927221 -0.04253423 0.26947218 -0.1152268 -0.017849121 0.0037170365 0.21688716 0.06631372
0.1582569 0.07835761 -0.011358098 -0.01606932 -0.021844199 -0.19058909 0.12452377 0.060520876
0.07426253 -0.07610853 0.21660337 0.12163299 -0.14694968 -0.24030757 -0.04770576 -0.023691894
-0.042123646 0.29871202 0.05745125 -0.03767467 -0.13763322 0.02360048 0.047691643 -0.15043722
0.14086245 0.03551762 0.1378886 0.17943257 0.101523034 0.21775007 -0.16401349 0.081137754
-0.14462799 -0.136408 0.0664466 -0.06990056 0.18050465 0.029674321 0.05756642 0.08617367
-0.09996088 0.19869642 -0.120418556 -0.13860573 0.002025233 0.0716701 -0.2114429 0.05580971
-0.16048181 0.20696056 -0.1661289 -0.17462096 0.22985394 -0.05369395 0.020333905 0.1859783
-0.028157627 0.12610523 -0.026008576 -0.20861967 0.2255707 -0.19717917 0.034375593 -0.09718932
-0.062136162 0.061556615 0.15477502 -0.12898313 0.13478787 0.07277923 -0.073291376 0.15200287
-0.0822295 -0.1691374 -0.036639072 0.078047335 0.049875293 -0.2021156 0.12735938 0.054672666
0.07576518 -0.25607437 -0.027810235 0.17602666 -0.05572371 -0.19569294 -0.046905518 -0.17709988
0.15522802 -0.019406766 0.086535685 0.07667778 -0.23618577 -0.18740398 0.10326764 -0.072789356
-0.1604544 -0.044017885 -0.12947214 -0.08771213 -0.007082096 0.039710917 0.18728396 -0.10457559
0.007291863 0.19969279 -0.06839972 0.25652573 0.16752687 0.10868099 -0.05741253 -0.23348953
0.08481338 0.10233011 0.18747805 0.29376855 0.22285444 0.25920528 0.042746954 0.08500832
-0.18419495 -0.23195784 0.010229257 0.00634256 -0.016751293 0.07927185 -0.08076015 -0.07857671
0.26921025 0.09792733 0.19509336 0.20511729 0.1726123 0.07298773 0.32266533 0.13944146
0.33559078 -0.1128609 0.21162657 -0.032397173 -0.115675755 0.12516794 -0.24200566 0.15677617
-0.15493621 -0.11993145 0.11372312 0.15624465 0.16565785 -0.18357074 -0.14138384 0.010638884
0.10515872 -0.026533622 0.11163477 -0.13992915 0.07893309 -0.056425802 0.02103299 -0.08606426
0.16714585 0.1987959 0.10885479 -0.0925306 0.043977637 -0.13244636 -0.3049046 0.061445035
0.17187929 -0.12945113 -0.17777991 0.1550628 0.06570482 0.06429006 -0.0004459673 -0.09572714
-0.13388182 0.10170577 0.08204245 0.015244765 -0.19409172 -0.1810908 -0.18835324 -0.10776417
0.17447421 -0.08421537 0.22134013 -0.06807655 -0.20391074 -0.21545039 0.10803444 -0.17082292
-0.061825402 -0.14827669 0.16571566 -0.2590072 0.16164294 0.08962139 -0.080549546 -0.02572849
0.05692702 0.036393695 0.014774474 0.02923889 0.172222 -0.29947641 -0.023398709 0.045948874

actor.0.bias f4 [64]
00000000: d79d 73be 99ed 1bbe 5691 353e 3325 93bd
00000010: 588d aebb 4ca1 943c c5c7 083d a1a5 5bbe
00000020: 78bd db3d 4a35 42be 6808 4cbe ec91 033e
00000030: f851 403c 20cd 29be 5529 013e 7ce4 9d3d
00000040: 737f 783d f9b2 03be deb2 b4ba 862c 953c
00000050: 26a5 6a3e db8f 83bd fa92 783d b095 1ebe
00000060: d066 1e3e 857a dabd e488 32be 9dae 333e
00000070: 585c 65be 93d2 11be 50e4 bdbd f911 063d
00000080: 19d8 d43d cd44 c63d 88b1 33be ff45 66bb
00000090: 1839 433e 2127 74be bb36 25be 0350 69bc
000000a0: 7d49 cabb be71 1d3e 971c 193e e606 403d
000000b0: 62a0 4fbe 373f f53d fb90 0f3d 07e5 923e
000000c0: d657 493d a4a9 4ebd 0203 bf3d ea71 0abe
000000d0: 8d1c 03be 8b36 4abb 1b07 8f3d 3bcc 683c
000000e0: 63b0 58be ed83 3bbd dfde 433e 75b8 533d
000000f0: 557a 4a3e 13bb bdba f4e3 ae3d 0976 2d3e
-0.2379068 -0.15227355 0.17731223 -0.071848296 -0.005326908 0.018143319 0.03339364 -0.21449901
0.10729498 -0.1896564 -0.19925082 0.12848634 0.011738293 -0.16582155 0.12613423 0.077095956
0.06066842 -0.12861241 -0.0013786217 0.018209707 0.22914562 -0.06423923 0.060687043 -0.15486789
0.15468907 -0.106679 -0.17435032 0.17547078 -0.22398508 -0.14240484 -0.09272063 0.032731984
0.1039278 0.096810915 -0.17548192 -0.0035136936 0.19064748 -0.23843051 -0.1613416 -0.014240268
-0.0061733113 0.1537542 0.14952312 0.04688158 -0.20276025 0.11974948 0.035050374 0.2869036
0.049156033 -0.05045475 0.093267456 -0.13520017 -0.1280386 -0.0030855264 0.06983777 0.014208849
-0.21161036 -0.04578011 0.19127987 0.051689584 0.19773228 -0.0014475308 0.08539572 0.16939558

actor.2.weight f4 [64, 64]
00000000: 2c4d ecbd 11e8 12bc 72f9 903d 68fa 023e
00000010: 3450 103e 2e14 acbd 6549 17bd b241 aabc
00000020: f667 44bd 19d3 a0bd a0c6 01bd 7289 41bd
00000030: c97c a23d a0ba b73b bd4a c7bd 0707 69bd
00000040: ca75 a73c 64ab 30bd d897 a73d f6b8 8dbd
00000050: cdc8 b03b b4e8 473d 3eac b4bd 9157 973c
00000060: a211 82bd b025 83bd 9553 ac3d 91a9 c13d
00000070: 1291 623d 9d2f e43d 0e93 03be 21e7 7d3b
00000080: 5d0d 853d ecdc 09be 26ca 8fbd 9e86 32be
00000090: e89e ccbd 4ed5 ed3d 8ab5 aa3d 16a6 48bd
000000a0: d153 833d 141a 36be 1d3f d23c 5d99 1dbe
000000b0: a655 e0bd f9f3 1bbe 477d 72bc ff59 4a3d
000000c0: 37eb 363e c04a 3dbd 7ba8 d3bd 92c5 22bd
000000d0: 0cc1 103c 3a2f 1dbd c6f4 3bbe 1271 2abc
000000e0: 480f 4cbd 44e6 f43d 265b 69be 76d6 2e3e
000000f0: dc3c bebd 5fd0 67bd c3c0 313e afb1 0dba
00000100: c5b2 e73c 15a8 fa3b ae47 b2bd dd86 c5bd
00000110: 0b6d 2ebd a425 4bbd ff02 32bd e59f 6bbe
00000120: 74d1 32be 988a 1a3e b572 a3bc b6fd ddbd
00000130: eb97 05be bf8c 84bd e16b 163e 8208 9dbd
00000140: 8f6d 8ebd 5152 f038 cfd3 b7bd 0423 3f3e
00000150: 9a97 cb3d 8eaa 883d 0a06 e03b 884f 493d
00000160: c740 1e3d c6c3 92bc 288e 973d c0f9 5b3d
00000170: 2438 243d 4755 393c 1d8d 973d f34d 3c3e
00000180: cc80 f9bd 9671 ab3d 7e10 b4bd 6bd5 cfbd
00000190: 9038 33ba c423 9fbd d914 74bd 28f7 4dbe
000001a0: 584a e03d ee08 083b 571d f33d 52d5 ddbc
000001b0: 7089 b4bd 3585 023d 4a12 3c3c 3ddc 863c
000001c0: bb82 283e f1f7 083e 8903 42be 3ae8 093e
000001d0: 73a6 7e3d c73a 433d c0c1 6ebd cc41 493e
000001e0: 7c6b 02bd cdb6 0e3e 60e1 07be 33ec 42bd
000001f0: 056c a2bd 026f 983d 5e8d 06bd 11b4 76bd
00000200: 974b 8d3d ff62 953d f9a0 d4bd 56f0 753d
00000210: c545 03bd 2250 803d f7eb 20be f920 e53c
00000220: cdc9 eabd 0801 613d c986 3e3d 1b1e b63d
00000230: e819 54bd 9709 b73d cb32 1e3e 2f24 7fbe
00000240: b750 773b cd80 b93d df03 d13d 951b 85bd
00000250: 0df7 a33d 15f9 f43d fcef 4ebe 4787 2d3d
00000260: 3173 e7bd 93d6 9bbd 5260 f6bc 3ad7 5cbd
00000270: befd 60bd e4ec 81bd 9e5d 943c 24f8 7fbd
00000280: 2a9e bb3c 3fc0 033e 188a abbc d804 cfbd
00000290: a7e5 9dbd 5787 99bd e54c 70bd 5bdb a23c
000002a0: fe27 603e 619d 8cbe 42a3 cfbc 44d2 fb3c
000002b0: 252f 4c3d 5b72 acbc e875 fc3c efc3 60bd
000002c0: 416d ca3c 4849 a2bc 59fb 803d 715d d3bc
000002d0: 24d4 ee3d 1856 65bd fc59 093e a4ae 903d
000002e0: 2f93 193c 2ba0 0cbe c637 49be deff 83bd
000002f0: 5622 3c3d 62b8 68bd 9748 1fbc 3039 eb3c
00000300: c229 1fbe d72e 0dbe aa5a c5bd 299e 23bd
00000310: d269 6c3d 4bb1 ef3c 1212 aa3d 9f5f 1f3e
00000320: 8988 b63d ca9a 793d 0bcc 143c 06ee 88bd
00000330: fec4 363e bd5f 013e b945 5abd 8b3f 1e3e
00000340: 5e8b 1dbe d4a3 923c 19c1 cb3d 4559 323e
00000350: 15bf 563d f570 80bd 9928 d83d 2714 b73d
00000360: 17d9 5ebc ed58 d93d 7c71 803d 65f3 a13d
00000370: 26cf b43d 68d3 8a3d 6f76 f03d caac dabd
00000380: 6b8b ab3c 7404 b63c 1e0f c5bd bdac f7bd
00000390: 2f51 68bd e71f 943d 89a5 8b3d c6fa 153d
000003a0: b2d4 163a 5e8f b4bd e8eb 043e b089 4a3d
000003b0: f8cd afbd 9fa8 6dbd 75a4 29be 3ee3 07bd
000003c0: e5ee 123e 28d7 e53c f660 0e3e fd7f 2f3e
000003d0: 9d1b 5fbd 23da 05be 0655 58be 72d8 17be
000003e0: a2ef a6bd 20cf ac3d af52 ca3b dce1 003d
000003f0: ef04 413c 4cfd c63a c5b6 c1bd f967 b73d
-0.11538157 -0.008966462 0.07078828 0.12790835 0.14093095 -0.084022865 -0.03693523 -0.02078328
-0.047950707 -0.07852764 -0.031683564 -0.04725022 0.07933957 0.005606964 -0.09731052 -0.056891467
0.020441908 -0.0431322 0.08183259 -0.06920044 0.005395031 0.048805907 -0.08821915 0.018474372
-0.063510194 -0.06403673 0.084143795 0.0945617 0.05531413 0.11141894 -0.12849066 0.00387425
0.064966895 -0.13463181 -0.07020979 -0.17434165 -0.099912465 0.1161295 0.08335407 -0.048986517
0.06412471 -0.17783386 0.02566486 -0.15390535 -0.10953836 -0.15229787 -0.014800376 0.049402233
0.17863165 -0.046213865 -0.103348695 -0.0397392 0.008835088 -0.038375117 -0.18355092 -0.010402935
-0.04981926 0.11957982 -0.22788677 0.17073998 -0.09288952 -0.056595203 0.17358689 -0.00054052
0.028283486 0.0076494315 -0.08705078 -0.09644864 -0.04258446 -0.049596444 -0.04345989 -0.23010214
-0.17462713 0.15091932 -0.019952158 -0.10839407 -0.13046233 -0.06472158 0.1468959 -0.07667638
-0.069544904 0.000114594244 -0.08975946 0.18665701 0.09941025 0.06673156 0.0068366574 0.049148113
0.038635995 -0.017915618 0.07400161 0.053704977 0.040092602 0.011311836 0.07399962 0.1838911
-0.12182769 0.08371274 -0.08792208 -0.10148128 -0.00068367366 -0.077704936 -0.059590194 -0.20113814
0.1095168 0.0020757276 0.118708305 -0.027079258 -0.088152766 0.031865317 0.01147897 0.01646244
0.1645612 0.13375832 -0.18946661 0.13467494 0.062170457 0.047663476 -0.058290243 0.19654006
-0.031840786 0.1393692 -0.13269567 -0.04758854 -0.07930759 0.07443048 -0.032849662 -0.06023032
0.06899183 0.07294273 -0.103822656 0.060043655 -0.03204896 0.06265284 -0.15715013 0.027969824
-0.11464272 0.054932624 0.04651526 0.08892461 -0.05178252 0.08937376 0.15449063 -0.24916147
0.0037737319 0.0905777 0.102058165 -0.064994015 0.080061056 0.11961571 -0.20208734 0.04236534
-0.11301268 -0.07609286 -0.030075226 -0.053916194 -0.054929487 -0.063440114 0.018111046 -0.062492505
0.022902567 0.12866305 -0.020939872 -0.10108346 -0.07709818 -0.07496517 -0.058667082 0.019879987
0.21890256 -0.2746382 -0.025346402 0.03073991 0.049849648 -0.021050623 0.03081794 -0.054874357
0.0247103 -0.019810334 0.06297941 -0.025801392 0.11661556 -0.05599031 0.13413233 0.0706456
0.00937347 -0.13732974 -0.19650182 -0.06445287 0.045931183 -0.056816466 -0.009721897 0.028713793
-0.15543273 -0.13787399 -0.096364334 -0.039945755 0.057718106 0.029259345 0.08304228 0.1556382
0.08912761 0.060938634 0.009081851 -0.06686024 0.17848584 0.12634178 -0.05328915 0.15453927
-0.15385196 0.017900385 0.0994894 0.17416866 0.052428324 -0.06271545 0.105546184 0.08939391
-0.013601563 0.10612664 0.062716454 0.07907752 0.08828573 0.06778604 0.117413394 -0.10677488
0.020940503 0.02221892 -0.09622024 -0.12093494 -0.056718048 0.072326474 0.06818683 0.03661611
0.000575374 -0.088164076 0.12980616 0.049447715 -0.08584207 -0.058022138 -0.16566642 -0.0331757
0.14348944 0.028056696 0.13904175 0.17138667 -0.054469693 -0.13071494 -0.21126184 -0.14828661
-0.08151175 0.084379435 0.0061744074 0.031465396 0.011780961 0.001518169 -0.09458689 0.08955378

actor.2.bias f4 [64]
00000000: ce6f 7fbd 75be 9ebd 6122 dd3d 16e7 b83d
00000010: 30dd 8b3d 47e6 bc3d 7776 433d b47e dabc
00000020: f972 18bd 296c 693c d583 be3b 8acd a9bd
00000030: ddd0 de3d 6b16 cebd f9d0 e9bb 4541 21bc
00000040: 6386 1fbe 33ff c83d d91d c2bc 3187 f83c
00000050: 0566 5cbd a7a7 16be ee5d d6bd 5208 42bb
00000060: 018a 053d be0a c23d 6f3b 073d 75e9 093d
00000070: f117 efbd bfb9 bdbd 5fa7 d7bb 41ec 70bd
00000080: 5ee6 923d 2be6 973b 2908 a9bd f537 93bc
00000090: 5110 633d 009d 10bd 8195 8b3c a5e5 ccbb
000000a0: 349d 5d3b 4051 213d 0e82 813b 6e50 10bd
000000b0: e781 e2bd 469c bdbd e010 f6bd 9ef7 14bd
000000c0: 14ed d43c f824 ffbd 127c 683d e4b2 9bbd
000000d0: 1701 e63d 1a42 be3c 254b 0dbe 7362 313d
000000e0: 8fe2 8dbd c59e 603d 4dce febd f77c c43b
000000f0: 507a a43b 1e30 c8bd 47b2 d2bd 91e2 f63d
-0.062362485 -0.077511705 0.10797573 0.09028451 0.068292975 0.092236094 0.0477204 -0.026671745
-0.03721902 0.014246979 0.0058140554 -0.082911566 0.10879681 -0.1006287 -0.007135507 -0.009842222
-0.15578608 0.098143004 -0.023695873 0.030337902 -0.05380823 -0.14712392 -0.104671344 -0.002960701
0.032602314 0.09474705 0.033015665 0.033669908 -0.11674488 -0.09263944 -0.0065812315 -0.05881906
0.07172845 0.0046355925 -0.082535096 -0.017971018 0.055435482 -0.035305977 0.017039062 -0.0062529617
0.0033815624 0.039384127 0.0039522713 -0.035232954 -0.11059933 -0.092583224 -0.120149374 -0.03636896
0.025991954 -0.12458223 0.056758948 -0.0760248 0.112306766 0.023224879 -0.13798197 0.04330678
-0.06927978 0.054838914 -0.124416925 0.0059963423 0.0050194636 -0.097748026 -0.1028791 0.12054933

actor.4.weight f4 [45, 64]
00000000: 8283 af3d b52c d0bd ecaf 453e da98 31bb
00000010: 9a09 0cbe 4efd 073e f1d3 b63c 9925 1ebe
00000020: a569 d53d 0d6a a2bd 7b6e 3cbd 86ba f13c
00000030: 371f dc3d 529a 8a3d 7893 90bd 7830 71be
00000040: 6d95 07bb a3ad 4b3d 50e2 a0bd 8dcc 1a3e
00000050: 5ed2 ca3c 8c1c fdbd 658e eb3d d2c1 6c3d
00000060: 5e8f f3bd 51e6 0abe 21cd 52be 02bd 823c
00000070: 1990 c63d 5d00 c3bc 4f65 a8ba 11d3 253e
00000080: 0e83 b9bd 390f 81bc eb96 253d 4118 78bd
00000090: 1a10 cabd 0d43 1d3e de9a f3bd b5c5 503e
000000a0: 1592 04be 9f16 823e 4177 01bd a8af 4abe
000000b0: 14f9 d93b 815a 1abc 5850 39bc 3c2c 073d
000000c0: c1e8 5bbd 86d7 ed3d aca6 563d 7ccb 503e
000000d0: ddbc 12be ae18 c5bb 8889 203e f440 6cbe
000000e0: 3431 95bd 6638 413e 0f20 23bc 5301 a2bd
000000f0: 6271 653e 3848 92bd c2f6 9c3a 18a8 0a3e
00000100: c853 1a3e 367d 49bd 8170 883d 9982 5abd
00000110: 6eb7 063e 602f 88bd 15e9 cebd f7b7 0abd
00000120: a40d a7bd 23d1 023e f990 c43a 37fd f9ba
00000130: f172 36bd e56b 803d 6022 94bc b05b ae3d
00000140: 38e4 403d bb83 a1bd 500d 0d3e a25c 6cbd
00000150: a107 c4bd 844f 5abb 25d5 fd3d e4a0 723e
00000160: dd5d 63bd 5179 4bbd 9bca cabb 0e32 db3d
00000170: a521 c2ba 08b6 9cbc e259 6dbd 782a e6bc
00000180: f148 42bd b325 913d 6838 0c3d cf73 ff3d
00000190: 9ff9 083e 4a52 c3bd 2134 1e3e da40 f33d
000001a0: 296e e63c 7b77 a2bd 1e1a 8c3d 5fc5 5cbc
000001b0: 07f3 213e 29cb c5b9 29e1 453e e5fc 69b8
000001c0: 1938 5f3d aeea 88bd 620a 15be b6bc a5bd
000001d0: a170 2c3e 0077 d439 42f6 d7bd b0e4 853d
000001e0: e224 e93c 295c cf3d 7db9 7c3d 3b6c a2bc
000001f0: bf40 63bb fa6a 04bd 948b 583e 4853 bebd
00000200: b0ed 883d b5a0 1e3e f6b9 113e e758 f4bc
00000210: e73a 38be 15cb 84bd aab3 413d 7f63 573e
00000220: 326d 0e3e 984b 403d bb61 013d ffbb acbc
00000230: 3bb0 cf3d 3862 003d 4377 ab3d f08f 0bbd
00000240: 0343 683d 3610 cd3c d4c8 ecbd 9e48 0c3e
00000250: 2289 edbd 451d 1a3e 2093 d9bc 3fa5 72bd
00000260: 289d 80bd 1e44 4ebe 83c6 b83d 2df2 8a3d
00000270: 24e2 003e 2dbc 7b3b c905 0c3d bfe7 da3d
00000280: 460a eabd 30d4 a2bd 32bd 663c 887f 04be
00000290: 5c57 8d3d a7bd 17bc a92e 85bc 2315 0f3e
000002a0: 3e3b 1c3d bb33 983d 40e9 09bd f699 94bd
000002b0: 8d6d a73d d571 793d 934e 3ebd 0979 d43d
000002c0: 69ad 1abe 6a72 453e 7e78 ccba 0bff 1bbe
000002d0: d8d8 b93d 1bc7 b4bd 7ebd 693d 8955 c33d
000002e0: 69cb 01bd a023 5a3d 04f7 9cbd 65b7 cf3d
000002f0: b5b7 b5bc c9e2 ecbc 28d5 1bbd 9299 ec3d
00000300: cba8 5bbd 7ebc bcbc 989c d5bc 705a e43d
00000310: afd6 0e3e c916 d43c f06a ccbd ea9e 8fbc
00000320: 4c07 a13c 290b 8dbd a4c9 72bd 4078 d7bd
00000330: 4f74 843e fccd 98bc d337 df3c 5795 f2bd
00000340: d7d8 fcbd 5d49 8fbd 6257 3c3d 2103 e4bd
00000350: 0260 13bd 2e81 e7bd 5244 a83c 117d acbd
00000360: 8cb2 b2bd ec68 e4bd 095c e8bd 7b8d bfbc
00000370: 985d 4ebc ab69 82ba 72eb f0bc 7604 1abd
00000380: 0451 213d 45c2 a1bd 15c6 13be 4f4f 97bc
00000390: fea0 573d 9572 933c 21be b1bd 205b f63d
000003a0: 381b b93d 4f66 093e 74a5 16bc daca 5fbe
000003b0: 9854 053c a991 9d3c ffea 12bd e242 3abd
000003c0: b880 4abd 1353 053e 36ae 39bd d4d3 603d
000003d0: d7aa 26bc 89ce 3f3e b302 d4bd c895 653d
000003e0: 4cf4 b3bd 7b9a ff3c 9163 db3d 8dbf d8bc
000003f0: f640 13be 51d5 a53c 9878 813e d4af 243e
0.08570005 -0.10164777 0.1930539 -0.0027099163 -0.13675538 0.13280222 0.022317858 -0.1544403
0.10420541 -0.07930384 -0.0460038 0.029507887 0.10748141 0.067677155 -0.070593774 -0.23553646
-0.002068843 0.04972614 -0.07855666 0.15117092 0.024758514 -0.123589605 0.11501769 0.05780203
-0.118925795 -0.13564421 -0.20586063 0.015959267 0.09695453 -0.023803884 -0.0012847575 0.16193797
-0.090582 -0.015754329 0.04042713 -0.060570005 -0.098663524 0.15357609 -0.11894773 0.20387919
-0.12946351 0.25407884 -0.03160787 -0.1979357 0.006652007 -0.009420992 -0.011310659 0.03300117
-0.05368877 0.116133735 0.052405044 0.20390123 -0.14329858 -0.006014905 0.15677464 -0.23071653
-0.072847754 0.1886917 -0.009956374 -0.07910409 0.22406533 -0.07142681 0.0011975395 0.13540685
0.15071023 -0.049191676 0.066620834 -0.053347204 0.1315591 -0.06649661 -0.101030506 -0.03386685
-0.081568986 0.12775092 0.0014996818 -0.0019072656 -0.04454321 0.06270579 -0.018082798 0.08513582
0.047092646 -0.07886454 0.1377461 -0.05770553 -0.095717676 -0.0033311555 0.1239417 0.23694187
-0.055509437 -0.049676243 -0.0061887032 0.107029065 -0.0014811052 -0.019129768 -0.057947047 -0.028096423
-0.047432844 0.07087269 0.03423348 0.124732606 0.13376473 -0.0953718 0.15449573 0.11877604
0.0281287 -0.07932945 0.06840919 -0.013474791 0.15815364 -0.00037726134 0.19324173 -5.5787055e-05
0.05449686 -0.066853866 -0.14554742 -0.080926344 0.1683984 0.00040524453 -0.10545017 0.06537759
0.02845997 0.10125 0.061700333 -0.019826999 -0.0034676043 -0.032328583 0.21146995 -0.092932284
0.0668596 0.15490992 0.14231095 -0.029827548 -0.1799122 -0.06484047 0.04729048 0.21034048
0.13908842 0.04694709 0.031587344 -0.021085737 0.10141035 0.03134367 0.08372357 -0.034072816
0.056704532 0.025032144 -0.115617424 0.13699576 -0.11598422 0.15050228 -0.026559412 -0.059239622
-0.06279975 -0.20143172 0.09022238 0.067844726 0.12586266 0.0038411722 0.034185205 0.10688733
-0.11427741 -0.07950628 0.014083194 -0.12939274 0.06901428 -0.009261525 -0.0162576 0.13972907
0.038142435 0.07431742 -0.03366971 -0.07255928 0.08175192 0.060899574 -0.046461653 0.10374648
-0.15105213 0.19281927 -0.0015599874 -0.1523401 0.09074563 -0.08827039 0.05706548 0.09537799
-0.031688128 0.05325663 -0.07664302 0.101424016 -0.022182325 -0.028916733 -0.03804508 0.11552729
-0.05362777 -0.023039099 -0.026075646 0.11150062 0.13949083 0.025889771 -0.09981334 -0.01753183
0.0196568 -0.06886894 -0.05927433 -0.10520983 0.25869986 -0.018652909 0.027248299 -0.118448906
-0.123460464 -0.06996415 0.045981772 -0.11133409 -0.035980232 -0.11303936 0.02054039 -0.08422292
-0.08725461 -0.11152825 -0.11345679 -0.023382893 -0.012595557 -0.0009949704 -0.029409144 -0.03760191
0.039383903 -0.07898382 -0.14431031 -0.018470434 0.05264377 0.017998973 -0.08678842 0.120290995
0.09038395 0.13417934 -0.009194721 -0.21854725 0.0081378445 0.019234495 -0.03586864 -0.04547394
-0.049439162 0.13019972 -0.045332156 0.054889515 -0.010172567 0.1873113 -0.10352077 0.056051046
-0.0878683 0.031201592 0.1071235 -0.026458526 -0.1438025 0.020243319 0.25287318 0.16082698

actor.4.bias f4 [45]
00000000: 3c8b 063d 8fdb 9c3d 441b fcbb 479c 7dbd
00000010: dd15 8dbd d3e2 e63c b7ec 593d e7e2 bc3d
00000020: 3ce2 363d 305c e9bb c3c3 88bd 4091 c63b
00000030: 943c 023e edfa 9bbd 3767 0bbe 8dce 96bd
00000040: c88c 9e3d 41a2 0f3d a610 8e3d 1316 8e3d
00000050: 6185 b6bc 1a9a 173e 1ce4 bfbd ae8b 7fbd
00000060: d015 92bd 4eb1 1fbd c40a 10be 9a19 813d
00000070: 44b0 c93c 845f b73d 7274 efbc 632b c33d
00000080: e24d cf3d 2d6f 0a3e 525e 08bd 932d 833d
00000090: a78f bdbd 7aa4 55bd 5f73 5ebd 35d1 693b
000000a0: d24e 913c 0420 9d3d 9203 953d 27fc 3abd
000000b0: 0d5a ae3c
0.032847628 0.07659065 -0.00769368 -0.061916616 -0.06888936 0.02818433 0.053204264 0.09222966
0.044649348 -0.0071215853 -0.066779636 0.0060597956 0.12718421 -0.0761622 -0.13613592 -0.07363615
0.07741696 0.035066847 0.06936769 0.06937804 -0.022280397 0.14804879 -0.0936968 -0.06238907
-0.07133067 -0.03898745 -0.14066607 0.06303711 0.024620183 0.08953765 -0.02923033 0.0952976
0.10122277 0.13518973 -0.033293076 0.06405177 -0.09255915 -0.05215881 -0.054309245 0.0035677676
0.01773778 0.07672122 0.072760716 -0.045650627 0.021283174

critic.0.weight f4 [64, 21]
00000000: 92cc 793c f03f f0bd 0981 633d 9018 6abc
00000010: e397 0bbe 56e5 183e 2fc8 04be 9039 45be
00000020: d598 00be bf3c f1be d8e4 53be 390c 69be
00000030: dbd8 d73d 935c b53d 0fcd 91bd 18f3 093d
00000040: c6d6 86be e9d9 6f3e d0a4 253d b935 1e3b
00000050: cc0b 883d c546 6abd 4d69 e73e e84f 50bd
00000060: 8a32 f4bd fc46 063e 45cd e13d c28f 423d
00000070: 59dd c03c 00bd a5bc 435d 2e3e a9be df3e
00000080: 0581 ca3d 3695 043e d0e9 c23d 2ef1 883e
00000090: d7c4 da3e 79f3 b63e 5253 f03d 368f cc3e
000000a0: 8bd9 d23d ef0f 933c cf52 773e dea7 b2bb
000000b0: 77a5 e5bc 35f9 26be d0b0 1bbf ff3a eabe
000000c0: e022 8cbd 02dc ee3d b1d6 9c3e d18b 513c
000000d0: a72a 2fbc b3f9 263e 9068 a03e a46f 943e
000000e0: 9253 6ebc d4f2 0b3c 1f0f 2f3e fe50 29be
000000f0: cc9a 06be d777 893e 3bf3 243e db0d eebd
00000100: afd2 56be 9112 bcbb c69f debd 5bf2 a13b
00000110: 0986 b23d a652 f4bd 1fbf 8a3c 747f 7b3e
00000120: 25df 113f 8010 97bd 0dc9 e83d 061b 683e
00000130: 4dd4 b93d 41fe 7ebd 5f0f 463e d8bc 643d
00000140: 96ba 00bd 8a7d 5a3e 646f 3a3e 9476 353e
00000150: 9137 ffbd 10bc 5fbd 96af 2ebe a3e4 013e
00000160: dd5d 513e 7506 663d 302f 2d3e d3ea 1cbe
00000170: aa4d 2cbd 1863 9f3e eca2 c0bd c419 833d
00000180: cfcc d9bd 1f22 063d 2ccd 2c3e 4d8c d23e
00000190: 9ac4 abbd f32e 3f3e fe2b 53be ddc3 babe
000001a0: 2f7b 863d bbbb e73c a524 883e ae00 703e
000001b0: 835e a2bc 92f6 263d 5093 413d 03c6 a83d
000001c0: 9000 513e aa7b ac3e 34fe 403e 91a5 533e
000001d0: 44ec fb3d e5fe 083e c497 4bbd f619 523e
000001e0: de5d e03e b2c7 1d3e 1763 70bd db63 47bd
000001f0: a2eb bf3e 19cd 3d3d 1287 1b3c a586 273d
00000200: 1b79 ac3e f80d fc3d 0e2d 0a3c a468 513d
00000210: d2ad 2bbe fe32 833e 2f83 713e cba1 393e
00000220: 0c26 023e cbc8 8cbd 02be 213e 3634 be3e
00000230: 2b02 1c3e dacf 6e3e 9389 d63e e981 e83d
00000240: 8e17 edbd 95b0 14be 50f8 843e 8633 67bd
00000250: 11db bd3b 0e4d 133d 9063 d83c ed20 fcbd
00000260: f527 63be 35db d33e 2306 9a3e 5ee3 9c3e
00000270: 4600 7a3e 7a4e ff3e 25c6 763e d253 b83d
00000280: 7cd8 653d 89b9 c43e e677 443e 0edc 893e
00000290: 8443 023e 59f1 1d3e b736 ad3e 6697 e03e
000002a0: 7adc a6be 5dc3 92bd 67e3 8e3d c9dd 973c
000002b0: 0bdc 03be b725 71be c39f d83e b66d 323d
000002c0: 92f5 b9bd 2619 9a3d 6043 9cbc cb53 193e
000002d0: 722b 1a3b 60df 603e 5186 b03d 26c7 37bd
000002e0: d8e9 83be 0d02 58bc 245f 7b3d 9229 043e
000002f0: 0b55 b23e 14b9 5abd 8c2b 00bd 0837 5cbd
00000300: a078 5abd 3507 76be 9324 b03c 59b0 91bd
00000310: da47 40be ae8f a4bd 7675 73bd 2f3f 823d
00000320: a520 dd3d c852 1a3e 33b0 b1be 0503 d23d
00000330: 7147 cebe c7da c1bd b0e1 393a 0f7d 083f
00000340: 8f46 433d c636 733e c728 34bd 0ab5 bbbe
00000350: 4cd6 2abe 725d e0bd c38c 603d 8910 f4be
00000360: 31f0 43be 6754 c6bd 96e8 a6bd 0f19 9dbe
00000370: 8410 dfbd 37c2 8ebc a5d0 83be 1039 01be
00000380: 41c8 9ebe d1fd 6ebe 921a b53d 2e8d 96be
00000390: 8799 5fbd 1f10 c3be ad5e 01be 00c1 cfbd
000003a0: ba15 353e 63ed 983d e179 cdbc f0a4 d7bc
000003b0: 88bb b3be 186a e6be 5092 9dbd 2c2c 253d
000003c0: 9fa8 59be 1272 413e 5b54 96bc c01a c43d
000003d0: 0346 c2bd b4bb 0dbe af8e 3ebe 4151 9c3a
000003e0: 9c28 7ebe 52d3 d53c 2657 b53e 4ec9 6c3e
000003f0: 47f6 2ebe c236 8cbc 3aba 3bbe 5e43 73be
0.015246527 -0.11730945 0.05554298 -0.014288083 -0.13632159 0.14931235 -0.12966989 -0.1926024
-0.12558301 -0.47116658 -0.20692766 -0.22758569 0.10539409 0.08855548 -0.0711919 0.033679098
-0.26335734 0.2342297 0.04044038 0.0024140908 0.06642875 -0.057196397 0.45197526 -0.050857455
-0.11923702 0.13113016 0.1102548 0.04750038 0.023543047 -0.020231724 0.17027764 0.4370015
0.0988789 0.12947544 0.095172524 0.26746505 0.42728302 0.3573263 0.11734642 0.3995301
0.10295399 0.017951934 0.24152683 -0.0054521402 -0.028033001 -0.16306002 -0.6081667 -0.45748135
-0.068425894 0.11663057 0.30632547 0.0127896825 -0.010691321 0.1630619 0.31329775 0.28991425
-0.014546292 0.008541781 0.17095612 -0.16534802 -0.13144988 0.26849243 0.1610841 -0.116237365
-0.20978807 -0.005739518 -0.10870318 0.004942221 0.087169714 -0.119298264 0.016936837 0.24560338
0.56981117 -0.07376194 0.113664724 0.22666559 0.09073696 -0.062254194 0.19341801 0.055844158
-0.031427942 0.21336952 0.18206555 0.17721015 -0.1246177 -0.05462271 -0.17059168 0.12684874
0.20445962 0.0561585 0.16912532 -0.15323953 -0.042066254 0.3113029 -0.09406075 0.06401399
-0.10634767 0.032747384 0.16875142 0.41122666 -0.08387108 0.18670253 -0.2062225 -0.36477557
0.06566464 0.028287759 0.26590458 0.2343776 -0.019820457 0.04076249 0.04725963 0.08240893
0.20410371 0.33688098 0.18846971 0.20668627 0.123009235 0.13378485 -0.04970528 0.20517716
0.43821615 0.15408209 -0.05868825 -0.048679214 0.3748446 0.046338174 0.0094926525 0.04089989
0.33686146 0.12307352 0.008433593 0.051125184 -0.16765526 0.2562484 0.23585199 0.18128125
0.12709826 -0.06874236 0.15795138 0.3714921 0.15235202 0.23321477 0.41901836 0.113529034
-0.11576758 -0.14520486 0.25970697 -0.05644562 0.005793937 0.035962157 0.026414663 -0.123109676
-0.22183211 0.4137818 0.30082807 0.30642217 0.24414167 0.4986456 0.24099024 0.090003625
0.05611466 0.38422802 0.19186363 0.269257 0.12721068 0.15424098 0.33830807 0.43865508
-0.32590085 -0.07166169 0.06976967 0.018538373 -0.12876908 -0.23549543 0.4230939 0.04356166
-0.09080042 0.07524328 -0.019075096 0.1497337 0.002352443 0.21960211 0.08619369 -0.044867657
-0.25764346 -0.013184083 0.06137003 0.12906483 0.34830508 -0.05339916 -0.03129153 -0.05376342
-0.053337693 -0.24026187 0.021501815 -0.07113714 -0.18777409 -0.08035217 -0.05943819 0.063597076
0.10797242 0.15070641 -0.34704742 0.10254482 -0.4028888 -0.094655566 0.000709082 0.53315824
0.04767471 0.23751363 -0.0439842 -0.3666156 -0.1668331 -0.10955323 0.05482174 -0.47668865
-0.19134595 -0.09684067 -0.08149831 -0.3068318 -0.10891822 -0.017426593 -0.2574512 -0.12619424
-0.31012157 -0.23339011 0.088429585 -0.29404587 -0.054589774 -0.38098237 -0.12633772 -0.10144234
0.1768407 0.07467153 -0.02508253 -0.026323766 -0.35104012 -0.45002818 -0.076939225 0.04032533
-0.2125573 0.1889117 -0.01835077 0.09575415 -0.0948601 -0.13841134 -0.18609117 0.0011926071
-0.24820179 0.026101742 0.3541805 0.23123667 -0.17086135 -0.017115954 -0.18332759 -0.23756167

critic.0.bias f4 [64]
00000000: 9ca5 753e f999 1a3d 5a50 a23e ad47 90be
00000010: 7253 d6bd 8945 62bd 6ce1 09be d27a f43c
00000020: 26d2 84be 32f7 18bf f04e b4be 4fe2 bd3e
00000030: 0095 e2bb 30e0 1dbe 500c 1e3f 2c43 e0be
00000040: a526 a43e fc6f cf3e 337c 893e 81cd 03bd
00000050: 902f 39be 3da1 47be 485e f63e a4ab 81be
00000060: 7946 b73e a4ce b83e c512 293f 9e04 77be
00000070: 0860 853e 636c 083e 7f35 88bd 2f40 0c3e
00000080: 3f04 97bc 99f3 96be 35e5 ea3d 057c 68be
00000090: 5e09 d8bd 49c0 bb3d 0be8 233d c6bd 17bd
000000a0: 01d5 a6be e14e 9bbe 3ffa ac3e bd34 17be
000000b0: 8424 c03e f71f 66be 49e6 b53e b250 e23d
000000c0: 0de9 693e 0768 c53c 7251 62be 578a 963d
000000d0: 066c 4f3e f6aa cebc 34c9 6f3e 7bab 973e
000000e0: 4283 c83e 6d06 4abe 68a4 6f3e af6e 0dbd
000000f0: ae0e 6a3e b7ed 863e 6828 e33d e01b b53c
0.23988956 0.037744496 0.31701928 -0.28179684 -0.10465135 -0.055242095 -0.13464898 0.029843722
-0.2594158 -0.5975219 -0.35216475 0.37086722 -0.006914735 -0.15417552 0.6173754 -0.43801248
0.32060733 0.40515125 0.2685257 -0.032178406 -0.1808455 -0.19495101 0.48118806 -0.25326264
0.35795954 0.36095154 0.66044265 -0.24122855 0.2604983 0.13322596 -0.066508286 0.13696359
-0.018434642 -0.29482725 0.11469499 -0.2270356 -0.10548662 0.09167535 0.040016215 -0.037046216
-0.32584384 -0.30333617 0.33784673 -0.14766212 0.3752786 -0.22473131 0.35527256 0.11050548
0.22842808 0.024097456 -0.22101381 0.07350605 0.20256051 -0.025228005 0.23416597 0.29623017
0.39162642 -0.19729014 0.2340256 -0.034529384 0.22857162 0.26353237 0.11091691 0.022108018

critic.2.weight f4 [64, 64]
00000000: 6ffe c9bd e939 2dbd 7000 d13d aa52 17be
00000010: c141 efbc f832 efbd b9eb ee3c cab8 f4bc
00000020: 5e19 57bd fc5a 49be f662 b83b d47e 86bd
00000030: 04f1 04be 4e81 5bbc fcc1 093f 3971 71bd
00000040: 7239 013c afff ddbb a45e 1d3d bdbd 9f3d
00000050: e5d3 ccbd 007d f4bd 6d93 4c3d ea60 683c
00000060: 4aa4 603e d78d 43bd 32de a93d c7d7 21bd
00000070: ef33 b93d 20a6 37bd 1d59 d6bd a50f b3bd
00000080: f602 0cbd d5c4 2bbe d138 4bbd 68aa 01be
00000090: 8922 af3d 359c 83bd 7ddb 0dbd f5a6 3abd
000000a0: 57a6 69bd 4f0b a03d 8f76 0cbe c0f8 00be
000000b0: 2348 dfbd 34a5 58bd 60fd 2c3d 0737 083e
000000c0: 9b33 a93d 649e b6bc 9352 29bd bb48 dcbc
000000d0: 7945 fa3d 3e99 f3bc 7480 f5b8 cc85 203e
000000e0: 7773 dd3d c2d2 94bd 0538 bcbd 36ed 07be
000000f0: 1f04 71bd e5f8 803c 1c52 79bd 7dab 97bd
00000100: c68b c03c c7de 42be d049 0f3e f28e 03be
00000110: 46f6 7bbd dad2 28bd ddfc fdbd eff6 63bd
00000120: 8f4b 69bd 2028 2ebd e54b 9ebd d484 c63d
00000130: 992a 43be 3daa e83c edd7 033f 673e e2bc
00000140: 575c 303d 7e34 2b3e efa6 3e3d ec09 8b3e
00000150: ee57 02be fd7d 313d 2a62 b03d c47c aa3d
00000160: 4a7e c93e 93cd 113e dc4d 313e 897b 2bbb
00000170: a882 103e d1be e93d ed5e 82be 5a5e 693d
00000180: e971 463d 3139 e9bd dbcc 563d d660 de3d
00000190: f32a fe3d 5ba6 193d 7807 efbd e685 83bc
000001a0: fe1b 103d 10ad 41bd e1a9 703c ab61 6fbd
000001b0: 28c0 cabd 84c8 fd3d 06bd 5fbd 4095 b53c
000001c0: 8d1e fbbd 25b2 1bbd 2d14 6fbd d447 13be
000001d0: 066d 87bc 5e13 b1bd 7732 ccbd 1d6b d93d
000001e0: 7e73 03bd 7949 9cbd 168b 08be 579c 033e
000001f0: ca75 553d 1cf3 6a3d 1425 303b 7101 a43d
00000200: 7217 2cbe aea3 713b c82d 93bd 7e18 a73d
00000210: aee0 09be a43c d93d cb72 23bd 4ad6 95bd
00000220: bb50 a83d 2e29 3fbd ab26 bc3d 7a7f fdbd
00000230: 4192 033e 1eb4 6bbd 1e89 afbe 4e09 97bd
00000240: 829a 133d fbb0 c9bd ccdb 8b3c f3b5 6fbe
00000250: 8194 a03d b08d 1cbd 595d 873d c975 22bd
00000260: 11a7 c4bd 9a5f 51be f955 6ebe 757a e1bd
00000270: aebf 86bc 594a 153d 495e 073e 67a6 bc3d
00000280: 1cae 2abe 5099 a1bc 0687 67be 6ad6 563d
00000290: ee53 213d ceeb 9c3d 11e3 c2b9 f717 babd
000002a0: df59 eb3d 4e4c 1cbe 48eb 29bd db79 103e
000002b0: cdef 51bd 87e7 423d ba9e b4bc cfae 39be
000002c0: 1ff2 a8bd 5f79 aebd bd5c 26be a27a 8f3b
000002d0: f6fa 2fbe ca8e 843d afa5 2dbc 3dbd 713d
000002e0: 62f3 94bd ccaf 2ebd a8dd 2c3c 36ad 8bbc
000002f0: 792b b2bd bb0a 59bd 7358 823d bcc8 c33d
00000300: 2fd5 bbbc ea2e cbbb 1d28 713b 07e9 513e
00000310: 0aa7 d03b 9de3 97bd 75fa 7ebd 477f f73d
00000320: 10f4 833d 104b 96bc bad8 4d3d be80 a8bd
00000330: db90 863d eca9 c8bd 01aa 93be 64d4 41bd
00000340: e7e9 f0bd 9855 eabd 57f4 023d 9aa7 f03c
00000350: d8bb a63c 2e0a 10be dc4b b03c d544 433c
00000360: 14d4 fabc f862 13be be75 ebbc 71e7 cb3d
00000370: e691 f8bc 86a3 92bc e051 3a3e 8aa1 793d
00000380: 9895 88bc 99d8 023e ffbd 1f3b ba6c b13a
00000390: f254 aebd 32de 44bb 71f0 0ebe ec4a 9cbd
000003a0: cde1 23bc 5d70 3abd e239 c6bd 356d 97bc
000003b0: 1715 0cbc 8525 94bb c0ac 8c3d e4f1 cfbc
000003c0: d875 58bd 7f3e ec3d a7cf 3f3d 1ae5 fd3d
000003d0: f033 35bd a1c5 61bb a977 033d fd1c 39bc
000003e0: e54a d43c eeb7 91bd ecb8 a0bd 9d70 72bd
000003f0: 7110 0ebe a0ef e4bd 33c7 53bd 2398 a2bd
-0.098629825 -0.042291556 0.102051616 -0.14777628 -0.029206159 -0.116796434 0.029165136 -0.02987327
-0.052514426 -0.19663614 0.0056270314 -0.06567159 -0.12982565 -0.013397528 0.5381162 -0.05894587
0.007887231 -0.0067748646 0.038420334 0.077998616 -0.10001353 -0.11937904 0.049945284 0.014183262
0.21937671 -0.04774269 0.082943335 -0.039512422 0.09043109 -0.044836164 -0.10466216 -0.08743218
-0.03418251 -0.16774304 -0.04961473 -0.12662661 0.08551509 -0.064262785 -0.03463315 -0.04556938
-0.0570434 0.07814657 -0.13717102 -0.1259489 -0.10902431 -0.052891925 0.042233825 0.13302241
0.08261796 -0.022292323 -0.041338515 -0.02689015 0.12220282 -0.029736158 -0.000117064366 0.1567604
0.10813039 -0.07266761 -0.091903724 -0.13274083 -0.05884182 0.015743682 -0.06086932 -0.07405756
0.02350415 -0.19030295 0.13993001 -0.12847498 -0.06151416 -0.04121671 -0.124017455 -0.055655416
-0.056956824 -0.042518735 -0.077293195 0.09693304 -0.19059218 0.028401488 0.5150135 -0.027617646
0.043056812 0.16719243 0.04654592 0.27156007 -0.12728855 0.043333042 0.08612473 0.083245784
0.39354163 0.14238577 0.17314857 -0.0026166162 0.14112341 0.114133485 -0.25463048 0.056974746
0.048448477 -0.113878615 0.05244146 0.10858314 0.12410536 0.037512165 -0.116713464 -0.016055059
0.035182945 -0.047284186 0.01468894 -0.058442753 -0.09899932 0.12391761 -0.054623626 0.022165895
-0.122616865 -0.03801169 -0.05836885 -0.14382869 -0.016531479 -0.08646272 -0.09970563 0.10616133
-0.032092564 -0.07631201 -0.13334307 0.12852608 0.052114286 0.057360753 0.002687757 0.080080874
-0.16805819 0.0036871242 -0.071864665 0.081589684 -0.13464615 0.106072694 -0.039904397 -0.07316263
0.08218523 -0.04667013 0.09187063 -0.1237783 0.1284876 -0.05754482 -0.342843 -0.073748216
0.036036022 -0.098482095 0.01707258 -0.23409252 0.07840825 -0.03822106 0.066096015 -0.03966311
-0.09602178 -0.20446625 -0.23274983 -0.11009685 -0.016448822 0.036447857 0.1321956 0.09211426
-0.1666798 -0.019726425 -0.22610101 0.052450575 0.039386682 0.07662164 -0.0003717174 -0.09086602
0.11491751 -0.15263483 -0.041484147 0.14108984 -0.051254082 0.047584083 -0.022048343 -0.1813309
-0.08249306 -0.085192434 -0.16246314 0.0043786326 -0.17185578 0.06472547 -0.010598584 0.059018362
-0.07272984 -0.04264812 0.010550894 -0.017050367 -0.08699698 -0.05298875 0.063645266 0.095597714
-0.022928802 -0.006200661 0.003679759 0.20499049 0.006367569 -0.07416461 -0.062250573 0.12084823
0.064430356 -0.01834634 0.050255515 -0.082276806 0.06570598 -0.09798035 -0.2884064 -0.047321692
-0.11763363 -0.11442107 0.031971302 0.029376794 0.020353243 -0.14066383 0.021520548 0.011918266
-0.030618705 -0.14393222 -0.028742667 0.09956253 -0.030343007 -0.01790024 0.18195295 0.06094507
-0.016672894 0.12777938 0.002437472 0.0013536431 -0.08512296 -0.0030039665 -0.13958909 -0.07631478
-0.010002566 -0.045517314 -0.09679009 -0.018484691 -0.00854995 -0.0045210742 0.06868887 -0.025383897
-0.05284676 0.11535358 0.046828892 0.12397213 -0.044238985 -0.0034450071 0.03209654 -0.011298415
0.025914619 -0.0711516 -0.07847771 -0.059189428 -0.1387346 -0.11178517 -0.051703643 -0.07939174

critic.2.bias f4 [64]
00000000: 507a 98bd 251d 39bd 6d66 43bd 3956 e9bc
00000010: 162c ebbb 857c 233d 6542 a7bd cfb2 2a3d
00000020: 0c15 1ebe 856b d03d 9228 5e3c 39a6 353c
00000030: 67a9 b33d c44c 86bd b724 953d 1ae4 62bc
00000040: 017d 063e 0799 2dbe e302 f3bd eb26 0d3e
00000050: c67f ed3b ea1d 673d 8e04 95bd 1f8d 7c3d
00000060: 84de 9bbd 9522 bbbc 4e4e 98bb 691c e63d
00000070: 55c8 c2bc f6db 0e3e 69f8 96bd bbb9 013e
00000080: 4310 913c edf6 4a3d 6396 d1bd e708 dcbd
00000090: 43c5 ff3d b186 913d 8f5a 093d bd57 e53d
000000a0: 2a0e 873d afd7 d33c 0fc9 13be 7e4f 853d
000000b0: 73ac 9ebd a279 28bd 27da 97bd 8c59 1b3e
000000c0: 77af 9f3d 6f5d 73bd 6997 3bbd 0a74 2f3d
000000d0: 1cc1 a23d 0588 dabc 59ed ddbd fd2d a2bd
000000e0: 7374 27be 17df 9fbd 04bf 5fbe 4e46 89bb
000000f0: ad97 ea3c befd d5bd 7d93 4abd b489 88bd
-0.07445204 -0.04519381 -0.047705103 -0.028483497 -0.0071768863 0.039913673 -0.081669606 0.04167443
-0.15437716 0.10176758 0.013559477 0.011086994 0.08772545 -0.06557611 0.072823934 -0.013848329
0.13133623 -0.16952907 -0.11865785 0.13784377 0.007247898 0.056425013 -0.07276259 0.06165802
-0.07610801 -0.022843638 -0.0046480065 0.112358876 -0.023777166 0.13951096 -0.07371599 0.12668507
0.01770795 0.049551893 -0.10233762 -0.107438855 0.124887966 0.071057685 0.03353363 0.111983754
0.065944985 0.025859682 -0.14432167 0.065093026 -0.07747736 -0.041131623 -0.07414656 0.15170878
0.07797139 -0.059415277 -0.045798693 0.042835273 0.07946989 -0.026676187 -0.10836286 -0.07918928
-0.16353016 -0.07806223 -0.2185021 -0.004189289 0.028636778 -0.10448788 -0.049457062 -0.0666689

critic.4.weight f4 [1, 64]
00000000: ff51 a9bd 7ae2 fcbd 398b da3d 6f2e 8fba
00000010: 1f96 1d3e 1831 4abd cb03 c3bc f7c6 4bbe
00000020: c1cc e0bd 315a ea3d f235 fa3d 12d8 35be
00000030: 6d55 15bc d337 203d d95c 32bc c4ce c53d
00000040: 5b7c d63c ff29 cabd bbae 16be 5b92 28bd
00000050: d208 0ebd 0338 2dbd 78ad 143d e4a1 8b3d
00000060: b293 85bd 32e6 82bc 3e0d d1bd c15a ee3b
00000070: abe6 813d 9d0d 833d bfbf 25be 9219 a13d
00000080: b72e f4bc bd28 273d 4ca3 463e 26f2 afbc
00000090: 7dc3 b33d 2724 72bc 79da 153e a52a 443d
000000a0: 2d8c bbbd 9ca5 aebd b8bc e13d 391b 35be
000000b0: abb5 e73d e9f6 103d 5b84 edbc 8727 e03d
000000c0: 12e4 2cbd 7430 7f3d 9ecd 5b3d a416 003d
000000d0: 06d6 8dbd 114c a4bd d4d8 30be 8973 9c3d
000000e0: 2de7 09bd 9adf dcbd 8129 36be 5c02 6abc
000000f0: 1a8f ebbd 683d 99bc c2af e9bb 0dca 3b3e
-0.08267593 -0.123478845 0.10671086 -0.0010923872 0.15389298 -0.049363226 -0.02380552 -0.19900118
-0.10976554 0.11442984 0.122173205 -0.17758206 -0.009114605 0.039115738 -0.010886394 0.09658578
0.026182344 -0.09871291 -0.14715092 -0.0411552 -0.03467638 -0.042289745 0.036298245 0.068179876
-0.06522311 -0.015978906 -0.10207604 0.0072740023 0.063428245 0.06399081 -0.16186427 0.07866205
-0.029807432 0.040810335 0.1939823 -0.02147777 0.08777521 -0.014779127 0.14634122 0.04789223
-0.09157596 -0.08527681 0.11022323 -0.17686166 0.11313947 0.035391722 -0.028993776 0.10945039
-0.042209692 0.062302068 0.05366289 0.03127159 -0.06925587 -0.08022321 -0.17270213 0.07639224
-0.033667732 -0.10784836 -0.1778927 -0.014282789 -0.11501904 -0.018706039 -0.0071315477 0.18338795
